model.pt (torch, 31110 bytes, 3 tensors)

weight f4 [68, 50]
00000000: 7845 edbe 1693 173f b3c8 d23f 92d2 35bf
00000010: ef43 a63f 6f23 3b3f 1e18 a9bf 327b 4a3f
00000020: 7c51 9ebe da95 873f 4e47 93bf 7eed 0c40
00000030: 5164 ca3e 7c86 88bf 24fa a2be aad1 95bf
00000040: 8f7d 4f3f 265f 8cbf ea92 933f dfcc 3d3f
00000050: 8a92 833f a7cd 7a3f dd6a dabf b7fb bebf
00000060: f0a0 1fbf 93c7 fdbe f8cd 143f 3372 17be
00000070: 856d 97bf 1952 803f 7058 8d3f c0fe 1940
00000080: b69d 1940 da9c 8ebf f1c0 ef3f 7182 5a3f
00000090: f169 8fbf 8ec1 ad3e bfed a93f 8cd3 b33d
000000a0: 55d3 b13e dc41 f4bf c7e6 82bf b7ec e93e
000000b0: 895e 64be e19f 093f 2c84 053d 2dd1 0cbf
000000c0: 2521 a5bf a364 9abf 359a 05bf 745b 593f
000000d0: c636 04bf d1fa e83e 0858 33bf 3714 8f3f
000000e0: 729c 0a3e c537 bebf 3fd7 a9bf e11c 22bf
000000f0: a6e9 863f 0909 16bf 8a65 11bd 5ee0 9ebf
00000100: 66e3 b8be 9a4d 0c40 eb41 ef3e 887e 543d
00000110: 62f7 38c0 eae5 dabd 7caa df3e f26e 4f3f
00000120: abeb dbbf 3152 b33f 0c14 e7be 0a4b aebd
00000130: fcb5 66bf 1810 0cbd 2a96 97bf 890d bb3f
00000140: 42d4 a23f b4bf 50bf 2df3 5d3a d692 1a3f
00000150: 7704 26bf 648d 0c3f ba46 cd3c 0ed8 853c
00000160: 4014 c0bf 71cd 543f 98cc 0140 efb7 77bf
00000170: 88e2 c03f d390 af3f b4a9 e43e b8e4 11be
00000180: c1a8 103d c024 283e 7d67 58be 4698 af3e
00000190: 3c46 ae3f c0ad 323c 93cb a33e f06b 4f3f
000001a0: 2ea7 bbbf 9d30 c3be a30b a23e 4578 d6be
000001b0: 252e 473f 1a9f d8bf f1c4 eb3e 2886 ad3f
000001c0: 8d6a cb3e 62e4 373f 4827 2c3f 5165 b23e
000001d0: 2dd4 2e3f d659 9e3f b3ab 90bf 6cea c73f
000001e0: 9b7a 22bc 0c04 58bf 49ba a7bf da12 133f
000001f0: 0c3a 763f ae93 72bd 8497 05c0 2ba3 ebbe
00000200: fae3 5cbf 30cf 603e 101e 26bf bc1f a0be
00000210: 0fec 06bf 5b11 b33f 63aa 3abe a134 9a3f
00000220: c134 a2bf eb62 4dbd e307 b43f 2973 b73f
00000230: f0b8 4fbb 01cb 8bbd 6c41 1f3e c26d b5bf
00000240: 33f1 38bc 98af 7d3f 0ff0 94be 2abc 243f
00000250: a7da 4cbe 33cc 6b3f 50fa 96be 2817 e83f
00000260: f741 323f f06d 90be a935 a23f 8450 b33d
00000270: 4c4e a13f c29c 2ebf 96a2 55be a71d 2fbf
00000280: 5b24 353f c86d b5bf abc8 b93f a420 5b3f
00000290: bf0d 783e 17b7 803e c419 aabd 85e1 c4be
000002a0: b5eb cebf 7699 b5bf 77a7 09bd b472 c73f
000002b0: 7bd3 413b c816 8d3f 0d8f abbd e2ce db3f
000002c0: 0c35 543d 8eea 983f 9374 0d3e fdad b4bf
000002d0: 3bba b7be 9f0b 203e 0a4d 1dbf b679 fc3e
000002e0: a307 823e 2982 81bf e522 efbe f6ce 0240
000002f0: 6409 ae3f 86c5 cb3f b961 0ec0 e845 49be
00000300: dddf 333e 7d16 473d 564b 7abf 33e7 933f
00000310: cb62 30bf 7cbf 563f 719a ae3e 0322 163f
00000320: bcc5 293e d04f 33bf a44d 03bf 2766 9fbf
00000330: e991 cf3e ec07 693e 7397 a83f f6e9 d13d
00000340: a01a f5bf 0e6e b4bc f684 39bf f123 913f
00000350: 85cf 28bf 6827 553e 789d 243f 582d d1bf
00000360: a1a6 3fbf 4365 c3bf e1d1 23bf 7f47 cabf
00000370: 59fe 3c3f 60b4 8a3d ac7e 47bf 53f5 bd3f
00000380: 905a 983f 9b5b 18bf 170c 52bf 4dd7 86bf
00000390: 8912 c93e 2168 9b3f 0507 463f 606a 96bf
000003a0: 77e3 3a3f d84f d53f 5389 9abf 90bd c7bf
000003b0: ca5f 1dc0 094d 77bf ab03 0c3f 7640 dc3e
000003c0: 47ca 3f3d 93c1 353f beee 8b3e d882 a03f
000003d0: a088 d83e 10fd 4e3f a92b 103e d015 febe
000003e0: cf69 453f 2181 d4be 7419 f2bd 1d26 00c0
000003f0: e7b6 2ebf 2dae e0bf 0d98 69bf b744 c7bf
-0.46342063 0.5920881 1.6467499 -0.7102443 1.2989482 0.7310094 -1.3210485 0.7909423
-0.30921543 1.0592606 -1.1506135 2.2019954 0.3952966 -1.0666041 -0.31831467 -1.1704609
0.8105096 -1.0966537 1.152921 0.74140733 1.0279095 0.9797005 -1.7063862 -1.4920567
-0.62354946 -0.49566326 0.58126783 -0.14789657 -1.1830298 1.0025054 1.1042614 2.4061737
2.400251 -1.1141617 1.8730756 0.8535529 -1.1204206 0.33936733 1.3275679 0.08780584
0.34731546 -1.9082599 -1.0226678 0.45688412 -0.22301687 0.5375958 0.032596752 -0.55006677
-1.290074 -1.2061962 -0.52188426 0.8490517 -0.5164608 0.45503858 -0.700562 1.1178044
0.13536242 -1.486077 -1.3268813 -0.63325316 1.0540054 -0.58607537 -0.035497226 -1.2412221
-0.3611099 2.1922364 0.4672998 0.051878482 -2.890099 -0.10688384 0.43684757 0.81028664
-1.7181295 1.4009458 -0.45132482 -0.08510406 -0.90121436 -0.034195036 -1.1842701 1.4613506
1.2721026 -0.81542516 0.0008466717 0.60380304 -0.6485056 0.54903245 0.02505814 0.016338374
-1.500618 0.8312598 2.0281124 -0.96765035 1.5069132 1.3716072 0.44660723 -0.14247406
0.035317186 0.16420269 -0.21133228 0.34295863 1.3615184 0.010905683 0.31991252 0.81024075
-1.4660394 -0.38123026 0.31649503 -0.41888633 0.77804786 -1.6923554 0.46048692 1.3556566
0.3972973 0.7183286 0.6724744 0.34842923 0.68292505 1.2371166 -1.1302398 1.5618415
-0.009916927 -0.84381175 -1.3103725 0.5745064 0.9618232 -0.05922287 -2.0873728 -0.46022925
-0.86285365 0.21954036 -0.6488962 -0.3127421 -0.52703947 1.3989671 -0.1822906 1.2047311
-1.2672349 -0.050143164 1.4064907 1.4332019 -0.0031695925 -0.06825829 0.155523 -1.417412
-0.011287975 0.9909606 -0.290894 0.64349616 -0.20005284 0.9210846 -0.29487848 1.8132067
0.69631904 -0.28208876 1.2672626 0.087555915 1.2602019 -0.68207943 -0.20862803 -0.6840462
0.707586 -1.4174128 1.4514364 0.8559668 0.24223994 0.25139686 -0.08305696 -0.38453308
-1.6165682 -1.4187458 -0.033606973 1.558188 0.0029575515 1.1022577 -0.08376894 1.7172511
0.051808402 1.194658 0.13814001 -1.4115597 -0.3588427 0.15629433 -0.6144568 0.49311608
0.2539645 -1.0117847 -0.4670631 2.043882 1.3596616 1.5919654 -2.2247145 -0.19655573
0.17565866 0.04860543 -0.97771204 1.1554931 -0.68900746 0.8388593 0.34102204 0.5864565
0.16579336 -0.7004366 -0.51290345 -1.245305 0.40541008 0.22756928 1.3171219 0.10249703
-1.914875 -0.022025134 -0.7246851 1.1339093 -0.6594165 0.20815814 0.6430278 -1.6341963
-0.7486363 -1.5265278 -0.63992125 -1.5803069 0.73825604 0.06772685 -0.7792766 1.4840492
1.1902637 -0.5951478 -0.820497 -1.0534455 0.39271954 1.2141153 0.7735446 -1.1751213
0.73003334 1.6664991 -1.2073158 -1.5604725 -2.4589715 -0.9660192 0.54693097 0.4301793
0.046823766 0.70998496 0.27330583 1.253993 0.42291737 0.8085489 0.14079155 -0.49626017
0.77114576 -0.41504768 -0.11821261 -2.0023263 -0.68247837 -1.7553154 -0.91247636 -1.5567845

weight f4 [3, 1100]
00000000: f802 b7bb acc2 66bc 4e46 713d e86d a2bc
00000010: 0fb8 c33d 5f8b 8f3d 48bd 8dbd 924b af3c
00000020: 0143 8a3c c8b0 053d 9c7e c4bd 114a 0c3e
00000030: b10d e6ba a667 91bd 1b31 163c 1903 cfbd
00000040: 7753 723d 0606 5ebd b151 873d 6577 0a3c
00000050: f073 7e3d b161 413d 9e17 81bd f7a3 b9bd
00000060: 67af 6abd ad21 b0bc e61f 2f3d d175 18bc
00000070: cb69 55bd 474f 423d b940 313d 568d ec3d
00000080: 7b2f 043e 4961 8dbd 6664 ee3d f91a e23c
00000090: 655e f8bc 0fad 063d ab6a 313d ce99 74bb
000000a0: 14ba c63c 285b 31bd 8fe1 37bc d495 14bc
000000b0: 3eb5 9dbc e42f 86bc ec89 0dbc 33e9 25bb
000000c0: 9710 93bd 1bea 0ebd e313 1abc dbac 073d
000000d0: da16 4b3c 3b6b 8abc 5813 6e3c 2ecf c2bb
000000e0: 67bb 073b ee2e 853c db02 12bd b31b 8bbc
000000f0: fea0 1ebd 7d05 f2b9 e64a ea3b 3644 5d3c
00000100: 7ff9 3e3d 18d6 423d b7ed fbbc 378e cabb
00000110: 7633 66bd cc95 283d 26d9 ae3c cf1d c73b
00000120: 8b33 8d3b 82bc 85bb 6b67 fcbc 58d8 8a3b
00000130: b9a1 6fbb 2899 69bd 7408 1f3d 48a5 b1bc
00000140: 2cf0 d53c 0dba 03bd 31db 473c feaa 363d
00000150: 4614 24bd 34db afbb 73ee 9f3c 7037 ba3c
00000160: c18f 16bb ee1e 743c f26b 5eba 2af6 a3bc
00000170: cd80 f4bb 6902 8bbc a344 c6bb 3de0 b23b
00000180: c05c 2e3c 8c94 e73c 7446 953b acef be3c
00000190: ba0d 513d 0704 c0bb 8234 e3bc 9f2d 73bd
000001a0: c67e afbc eb72 dbbc 2541 a1bb 509b 173d
000001b0: 65e9 45bd 7591 9dbb cc2b 703c 799b 813d
000001c0: a8e2 053d c075 e7bc 1056 153d 70cb 543c
000001d0: 225d 75bc 6639 64bb 47f3 3bbd db81 1c3d
000001e0: 2576 413b 5aa1 6bbd f40d 70bb 57f3 7d3c
000001f0: 6a1f 25bc c27d 81bb e3ce 4e3c 6ee0 aebb
00000200: b46b 7d3d 8dca 253c f07b 0b3c c528 74bb
00000210: 4f36 42bd fe1e 033d 7015 cabc ed20 c4bc
00000220: b5e8 2cbc 3d46 1a3d e652 913c 7de7 6d3d
00000230: d3a8 8fbb 226e 1fbd ec81 083c a4ff 62bc
00000240: cc66 313d 0fe4 373d 66b0 633c cda9 44ba
00000250: 450b 10bc d6ca 82bc ee1a dc3c feef c4bc
00000260: f31d e6bc aaa5 6dbd e9b6 7dbc c759 fdbb
00000270: d5d2 cabc 9427 a23c 9d99 b43c d85d 1cbd
00000280: 276a 0bbb 9a9f f13c 2c0e 733d e927 0bbc
00000290: 5766 393d b844 d73c 6437 8cbc 4e6c 3dbc
000002a0: 24b6 51bd 5804 433d b4b9 99bb a4ce 07bd
000002b0: 23eb 35bc ac88 97bb d2e1 40bd 4280 103d
000002c0: a07a 19bd a9a6 0d3d a9f5 b13c c109 b5ba
000002d0: d03b 07bc 7401 ee3c 65ca 52bd f239 343d
000002e0: c03b f4bb 0e07 32bc fd53 babc 6a61 4d3d
000002f0: ee4e 013d 34f1 aa3d dcc5 c0bc d559 52bb
00000300: 6acb 08bd 3b31 a3bc 31bc 623d 9189 c4bc
00000310: 7101 e53c 3383 173d 7b37 c3bc 4b83 243c
00000320: d874 813c e6f1 35bd b0e0 ddbb 5972 91bc
00000330: 6814 ffbc d6c7 c9bb e0e9 02bd 6cd7 1c3c
00000340: f5be 3f3c 191b 483c dd94 33bc 4aae 123d
00000350: b3a2 d13c 071a df3c 4005 563c 8e10 6a3b
00000360: 2a50 8c3b e099 5f3b b90f 32bd 3580 623c
00000370: ff81 193a 2dd3 2cbd bad3 1cbd 30c6 7a3b
00000380: 20de 2abc 969f 9eba b85a 30bd ecdc 06bc
00000390: 1d1c 183b fddd 093c 5345 a63b 1b50 c0bb
000003a0: 23cf 03bd a451 413d 9468 993b 9b32 243d
000003b0: d38f edbc dc4f a83c 8447 213c 2738 ab3c
000003c0: 2bd0 763c 175c 073c 0bc4 91bb 48d4 7cbb
000003d0: 1f2a 2c3c 05d6 0bbc 9c76 83bc f23f ea3c
000003e0: 3a4d d03c 98cb 0a3c 02bd f03c 930b b23c
000003f0: c102 1a3c 0acd b3bb c2f8 bdbc 14e7 923b
-0.0055850707 -0.014084499 0.05890494 -0.019827798 0.09556591 0.07009005 -0.06920868 0.02139834
0.016877653 0.032639295 -0.09594461 0.13700129 -0.0017551688 -0.070998475 0.009166981 -0.10108013
0.05916163 -0.054204963 0.06607378 0.008451317 0.062122285 0.047212306 -0.06303333 -0.09064477
-0.057296183 -0.021500433 0.04275503 -0.009305433 -0.052102845 0.047438886 0.043274615 0.11550395
0.12908737 -0.06903321 0.11640243 0.027600752 -0.030318448 0.032879885 0.043314617 -0.003732312
0.02425865 -0.043299824 -0.011223211 -0.009068925 -0.019251462 -0.016380258 -0.00863884 -0.0025316
-0.07180899 -0.03489123 -0.009404155 0.033123832 0.012395585 -0.016896835 0.014530979 -0.005945108
0.0020711066 0.01625773 -0.035647254 -0.016980981 -0.038727753 -0.00046161926 0.007150042 0.013505032
0.046624657 0.047567457 -0.030753 -0.006181504 -0.05620142 0.041158482 0.021343779 0.0060765515
0.004309123 -0.00408131 -0.030811032 0.004237216 -0.00365649 -0.057030827 0.03882642 -0.021685258
0.0261155 -0.032159854 0.012198255 0.044596665 -0.040058397 -0.005366707 0.019522881 0.022731513
-0.0022973868 0.014899952 -0.0008484713 -0.020014841 -0.0074616433 -0.016968923 -0.0060506626 0.00545886
0.0106422305 0.028269075 0.004555518 0.023307644 0.05103848 -0.005859855 -0.027734999 -0.05936968
-0.021422755 -0.026788196 -0.004921096 0.037013352 -0.048318285 -0.0048085996 0.0146588795 0.06328482
0.03268686 -0.02825439 0.03645903 0.012987956 -0.014975818 -0.0034824251 -0.045886304 0.038209777
0.0029519883 -0.057526924 -0.003662941 0.015499911 -0.0100782905 -0.003951759 0.012622568 -0.0053368127
0.06187029 0.010119093 0.008513436 -0.0037255746 -0.047415074 0.03201198 -0.024668425 -0.023941481
-0.010553529 0.03766464 0.017739724 0.058082093 -0.004384139 -0.03892339 0.008331757 -0.013854895
0.043310925 0.044895228 0.013897037 -0.0007502109 -0.008791749 -0.01596586 0.02686831 -0.024040218
-0.028090453 -0.058019318 -0.015485504 -0.0077316496 -0.024758736 0.019794263 0.022045905 -0.038175434
-0.0021272989 0.02949505 0.059339687 -0.008493402 0.045263615 0.026277885 -0.017116256 -0.011561466
-0.051199093 0.047611564 -0.004691327 -0.033156052 -0.011103424 -0.004624447 -0.04709036 0.035278566
-0.03747046 0.034582768 0.021723585 -0.0013812111 -0.0082540065 0.029053427 -0.05146255 0.044000573
-0.007453412 -0.01086594 -0.022745127 0.05014173 0.031569414 0.08346787 -0.023531847 -0.0032097
-0.033397116 -0.019920936 0.055355255 -0.023991378 0.027954789 0.036990356 -0.023830166 0.010041068
0.015802786 -0.044420145 -0.0067711696 -0.01775472 -0.03113766 -0.0061578555 -0.03196132 0.009572845
0.011703243 0.012213492 -0.010960785 0.035810746 0.025590276 0.02723409 0.013062775 0.0035715434
0.0042820172 0.0034118816 -0.043472026 0.013824512 0.0005855858 -0.04219358 -0.038287856 0.0038265102
-0.010428935 -0.0012102004 -0.043055266 -0.008231383 0.0023210116 0.008414743 0.005074182 -0.0058689243
-0.032179963 0.047197 0.004681656 0.040087324 -0.028999245 0.020545892 0.009843711 0.020900799
0.01506428 0.008261702 -0.004448419 -0.0038578678 0.010508089 -0.008534913 -0.016047768 0.028594945
0.02542745 0.008471392 0.029387001 0.021734035 0.009400071 -0.005487089 -0.023189906 0.004483113

bias f4 [3]
00000000: 1269 ddbc c090 22bc 560a 3e3b
-0.02702764 -0.009922206 0.002899786
