model.pt (torch, 68486 bytes, 3 tensors)

weight f4 [71, 50]
0.33210704 -1.3422364 0.0024649967 0.21767166 -1.3082181 0.8077598 0.3870336 0.7121251
-0.8805065 1.6340661 -0.23625824 0.5599589 -1.7791471 -0.42795625 3.12254 0.29052854
0.9574466 1.2000157 0.59627527 -0.21782222 0.21097885 -0.65469694 1.0744417 0.09829633
1.2343694 -1.548859 0.30254272 -0.66496164 -0.16388083 -0.32971346 -0.944821 -1.0414712
-0.32618266 0.59932464 0.84646785 1.1293777 0.88677675 -0.63506335 -0.23293927 1.8829066
-1.3149016 -0.16363776 -1.3786919 -2.8146474 -1.1110474 -0.29679835 -0.57859296 -0.7301638
-0.21599679 -0.039998256 0.30003327 1.2999913 0.6761764 1.4260986 1.5932645 -1.4372102
-0.2899923 0.9511227 0.5054907 -1.4606456 1.8304894 0.2601137 -0.16045947 1.0605593
-2.530031 0.6249078 -0.18008442 -0.30552718 -2.131656 0.9572478 -1.1710278 1.1035447
-0.288411 -0.6091804 -1.0922192 0.826501 -0.08642579 -1.4636167 -1.2376093 -0.43349618
-1.7473844 -0.06015789 0.5411656 -0.23538396 -2.9394567 -0.6424934 -0.92893124 -0.038446702
0.15353578 0.39953336 0.20411278 -0.16740064 0.7831534 1.7464253 0.6328575 0.0493871
1.4141163 1.1257759 1.3584765 -0.69929403 -0.8484699 0.87108624 -0.35022515 -1.1970798
0.37699914 0.45975584 -0.5317003 -0.46869585 -0.6099477 0.93162894 0.8728118 0.81167525
0.84392 -0.104395755 -1.0271977 0.43574092 -0.66259193 -0.8295367 -0.5849653 1.1087986
-0.70350105 -0.898712 -0.40542376 -0.19994529 -0.33991775 -0.27690223 -1.7530488 -0.1171633
-0.7534541 -2.0509777 0.9508849 -1.2717395 1.209045 1.0875622 1.6027269 -1.1260293
0.94515777 1.2283609 0.08833789 1.745353 -0.4093643 -1.1709222 1.169751 -1.8353064
-1.9891005 -0.33177963 -0.98818517 1.277099 -1.3890023 0.12390644 0.37497476 -0.64749193
0.85355806 0.2946612 0.8923964 -0.34403864 1.2729146 -1.7720546 0.45255345 0.42175642
-0.7913895 0.6915461 2.8146033 -0.19352868 0.53072995 -0.044148706 -0.5180761 -0.26806632
1.4306957 1.4972069 0.33176535 -0.6000464 -1.0596957 0.6097843 1.3644559 1.0806559
2.7694764 -0.81869566 0.38061088 -0.44890153 0.27635625 0.85917896 0.20752223 0.061918385
0.590183 -1.7722163 -1.2787299 0.39711794 -0.5102006 -0.44872573 -1.0465081 0.4313962
2.0073285 1.0624083 0.24636666 -2.9610503 0.5102286 -1.8048612 0.47753513 -0.4389591
-2.287182 0.5911884 0.29184863 0.67252165 -1.1094013 -1.2839518 -0.52519524 0.24630848
-1.9709128 0.9791368 -0.19856045 -1.4233366 1.4302558 0.5034828 1.4206796 -0.020813735
1.3701833 -1.574327 -0.31939453 -0.20739006 1.221632 -0.5688091 0.6709235 0.68298376
0.888113 1.1805367 0.9014721 -0.07151911 -1.2908887 -0.4780756 -0.7087072 0.8581576
-1.3287311 -0.2725624 0.38710287 0.324544 0.72417223 -0.16771251 0.024643729 -1.2886276
-0.7004892 -0.3292688 -0.025880009 0.09330119 -0.47593194 1.8916001 0.45752692 -0.22613685
-0.86946666 -1.7722014 0.22274004 0.9985685 -0.49112216 0.34860182 -1.7754265 -0.07939949
00000000: ef09 aa3e 67ce abbf c88b 213b 52e5 5e3e
00000010: b173 a7bf 59c9 4e3f 4529 c63e d54d 363f
00000020: e068 61bf 1429 d13f aeed 71be 7759 0f3f
00000030: 18bb e3bf 151d dbbe b2d7 4740 28c0 943e
00000040: 381b 753f 1d9a 993f 7fa5 183f ca0c 5fbe
00000050: d70a 583e 389a 27bf 4e87 893f 964f c93d
00000060: d1ff 9d3f 0341 c6bf e1e6 9a3e ed3a 2abf
00000070: 60d0 27be 34d0 a8be cadf 71bf ee4e 85bf
00000080: 6a01 a7be 576d 193f 1eb2 583f 738f 903f
00000090: cd03 633f 8393 22bf a287 6ebe 1503 f13f
000000a0: b24e a8bf a890 27be fa78 b0bf 2f23 34c0
000000b0: cd36 8ebf f4f5 97be ab1e 14bf 04ec 3abf
000000c0: 432e 5dbe 36d5 23bd f69d 993e 1d66 a63f
000000d0: e619 2d3f 668a b63f 17f0 cb3f 81f6 b7bf
000000e0: df79 94be c77c 733f d767 013f 6ff6 babf
000000f0: 7a4d ea3f 9f2d 853e 7d4f 24be 68c0 873f
00000100: 07ec 21c0 f5f9 1f3f 0d68 38be 0f6e 9cbe
00000110: 0d6d 08c0 310e 753f 3de4 95bf f440 8d3f
00000120: 9baa 93be 3ff3 1bbf d7cd 8bbf 9295 533f
00000130: 0100 b1bd cb57 bbbf fb69 9ebf 36f3 ddbe
00000140: 4baa dfbf 1f68 76bd d489 0a3f 7e08 71be
00000150: 0f20 3cc0 737a 24bf 70ce 6dbf 4a7a 1dbd
00000160: 7c38 1d3e a38f cc3e f102 513e 136b 2bbe
00000170: be7c 483f dd8a df3f f302 223f 214a 4a3d
00000180: c301 b53f 6d19 903f 8fe2 ad3f ef04 33bf
00000190: 5335 59bf 82ff 5e3f b650 b3be e939 99bf
000001a0: 0806 c13e 1e65 eb3e 831d 08bf e7f8 efbe
000001b0: 8825 1cbf 3c7f 6e3f 9870 5f3f f3c9 4f3f
000001c0: 240b 583f 71cd d5bd 377b 83bf 6f19 df3e
000001d0: a09f 29bf 845c 54bf 49c0 15bf 1ded 8d3f
000001e0: a518 34bf fd11 66bf b493 cfbe 75be 4cbe
000001f0: b309 aebe 21c6 8dbe e763 e0bf 50f3 efbd
00000200: 5ee2 40bf 3843 03c0 316d 733f 5cc8 a2bf
00000210: fdc1 9a3f 3d35 8b3f 2826 cd3f ba21 90bf
00000220: dcf5 713f ee3a 9d3f 7fea b43d ba67 df3f
00000230: 3398 d1be c7e0 95bf 67ba 953f 52eb eabf
00000240: d89a febf 05df a9be b4f9 7cbf fb77 a33f
00000250: d4ca b1bf a9c2 fd3d b1fc bf3e 08c2 25bf
00000260: c882 5a3f d5dd 963e 1774 643f d525 b0be
00000270: deee a23f afd2 e2bf 16b5 e73e 75f0 d73e
00000280: 8198 4abf 2a09 313f 7622 3440 622c 46be
00000290: ebdd 073f 46d5 34bd a3a0 04bf fd3f 89be
000002a0: 0921 b73f 7aa4 bf3f 26dd a93e a49c 19bf
000002b0: 1ca4 87bf d31a 1c3f 7ea6 ae3f ef52 8a3f
000002c0: 1a3f 3140 0a96 51bf 6edf c23e 6cd6 e5be
000002d0: 917e 8d3e 27f3 5b3f b580 543e 229e 7d3d
000002e0: 3c16 173f fcd7 e2bf 6cad a3bf 0b53 cb3e
000002f0: 829c 02bf 61bf e5be faf3 85bf f6df dc3e
00000300: 1278 0040 fffc 873f 8b47 7c3e d981 3dc0
00000310: 579e 023f b105 e7bf 7c7f f43e 3fbf e0be
00000320: 3161 12c0 1f58 173f 2f6d 953e 612a 2c3f
00000330: dd00 8ebf 8858 a4bf 3273 06bf 4a38 7c3e
00000340: df46 fcbf b6a8 7a3f 6e53 4bbe e52f b6bf
00000350: 9f12 b73f 40e4 003f d4d8 b53f 9181 aabc
00000360: 2b62 af3f 8c83 c9bf ae87 a3be 0f5e 54be
00000370: 705e 9c3f 799d 11bf a4c1 2b3f 06d8 2e3f
00000380: 605b 633f d41b 973f e0c6 663f 9c78 92bd
00000390: d73b a5bf 53c6 f4be d66d 35bf 37b0 5b3f
000003a0: dc13 aabf 4d8d 8bbe 5932 c63e a22a a63e
000003b0: 5a63 393f d4bc 2bbe a5e1 c93c c0f1 a4bf
000003c0: 4353 33bf ec95 a8be 5002 d4bc b214 bf3d
000003d0: 5aad f3be f41f f23f f840 ea3e 6b90 67be
000003e0: 5e95 5ebf 7fd7 e2bf f715 643e 2fa2 7f3f
000003f0: 5d74 fbbe f07b b23e 2d41 e3bf 339c a2bd

weight f4 [5, 2500]
-0.016776193 -0.124714665 -0.0014601587 0.01632199 -0.09716918 0.034008183 0.0046734773 0.06341857
-0.066795796 0.102683164 -0.021758627 0.033039037 -0.1363038 -0.05091098 0.25811017 0.004352385
0.07880368 0.08315987 0.07879909 -0.014545693 -0.0278669 -0.06950044 0.08581251 0.007308774
0.07125944 -0.10350618 0.0062761703 -0.04953948 -0.011188584 0.013615513 -0.075319976 -0.03460193
-0.0016111949 0.035562787 0.045116328 0.0583797 0.08004562 -0.051384952 -0.007087276 0.12863697
-0.1152968 -0.0022470073 -0.08982087 -0.20742758 -0.047299016 -0.045104124 -0.0339778 -0.0744498
0.0015055982 -0.028543375 0.018633837 -0.0093643125 -0.01674681 0.012528572 -0.0021128722 -0.061013553
0.02885056 -0.019105487 0.013202127 0.006110866 0.005916316 0.009349948 -0.0036824213 -0.005216878
-0.018400963 0.0049181012 -0.03256643 -0.011401939 -0.0061785397 0.028520098 -0.011178156 0.0079929605
0.007683685 0.00872896 0.008403561 -0.038683917 -0.0016344065 0.0011542204 -0.0076564834 -0.029966101
0.002074306 -0.0038361105 -0.05062997 -0.0036829864 -0.012971084 0.0018619549 -0.032455448 -0.019592378
0.00061152014 0.021257496 -0.016994342 0.0073697018 0.021686142 -0.020494465 -0.035231356 0.017269872
-0.0006014177 0.00037827995 -0.020933487 0.00522423 0.0029603664 -0.0076146754 0.03573524 0.022008372
0.0010352628 -0.06447521 0.03518297 -0.017758794 0.052946124 0.00038595442 -0.010937002 0.017473813
0.068673976 -0.030508077 -0.0045874645 0.017532818 -0.0019240396 -0.02627918 -0.010654072 0.049002614
0.031249013 0.011667527 -0.0011038458 0.017613493 -0.010888157 -0.017709807 0.0296451 -0.025823664
0.029462622 -0.026660334 -0.002737326 0.025730725 -0.026852844 0.03337179 -0.011829018 0.0013535689
-0.024762265 0.016284294 -0.010342391 0.013357679 -0.0060525676 0.0071244077 0.050036665 -0.007080638
-0.023178147 -0.03923952 -0.03859611 -0.030824155 -0.0045609483 -0.0051939054 0.01860543 0.0073815696
-0.010813142 0.0016869496 0.0071559707 -0.048339784 0.019515054 -0.016505439 0.06255427 0.00053571584
0.0021280309 0.041914113 0.056562368 -0.0007669019 0.013942093 -0.00250531 -0.046616342 -0.02267997
0.025168307 0.05533359 0.006400918 -0.0017959286 -0.031433497 0.037178323 0.047113728 0.0085664345
0.060678624 -0.04401511 0.005117102 -0.029064007 0.005565899 0.047975395 0.007154369 0.021911317
0.023883352 -0.028733889 -0.028145479 0.017912481 0.0024593673 -0.00988383 -0.024551459 0.029952116
0.06563906 0.015431149 -0.0138549525 -0.026540915 0.004502946 -0.013603302 0.002552451 0.011217888
-0.006550194 0.014991471 0.011785619 -0.025023058 0.03274507 -0.03988597 -0.00011132097 -0.023360547
0.077400506 -0.010601325 -0.00013034714 0.016576514 0.06431722 -0.027406292 -0.020933697 0.00023369909
-0.039973192 -0.050612375 -0.021314101 0.049101114 0.03454648 -0.011926875 -0.006120428 0.023212794
0.017290791 -0.006590111 0.054470357 -0.027057946 0.020883491 -0.018376067 -0.031262416 0.0137742665
-0.029726375 -0.03358119 0.0018359647 -0.005839512 0.00325948 0.01346098 0.023438536 0.0050031273
-0.044419825 0.012946434 0.033961754 0.011421716 -0.025262833 -0.040581323 -0.015448461 -0.014998929
-0.03915873 -0.0094536 -0.005785714 0.0018370206 -0.025293918 -0.011513018 0.019001203 -0.04350299
00000000: 3a6e 89bc 676a ffbd cc62 bfba b2b5 853c
00000010: a300 c7bd 2a4c 0b3d f823 993b 98e1 813d
00000020: 3ccc 88bd 8d4b d23d 263f b2bc f153 073d
00000030: 3993 0bbe 0888 50bd 0427 843e 749e 8e3b
00000040: d363 a13d b94f aa3d 6b61 a13d 0f51 6ebc
00000050: 2049 e4bc 3f56 8ebd 78be af3d 717e ef3b
00000060: 78f0 913d 0cfb d3bd 55a8 cd3b e9e9 4abd
00000070: 5350 37bc 9a13 5f3c 5c41 9abd c1ba 0dbd
00000080: bb2e d3ba 49aa 113d e6cb 383d 8d1f 6f3d
00000090: f5ee a33d 0779 52bd 613c e8bb 69b9 033e
000000a0: bb20 ecbd 8742 13bb 01f4 b7bd e567 54be
000000b0: 9dbc 41bd 1abf 38bd 4e2c 0bbd 2379 98bd
000000c0: 7e57 c53a ccd3 e9bc fda5 983c c66c 19bc
000000d0: 9b30 89bc a444 4d3c 1d78 0abb 59e9 79bd
000000e0: 0258 ec3c 1c83 9cbc bc4d 583c a93d c83b
000000f0: a8dd c13b 8630 193c c754 71bb 58f2 aabb
00000100: 9ebd 96bc 0628 a13b 6064 05bd 33cf 3abc
00000110: 5975 cabb fba2 e93c 9624 37bc e8f4 023c
00000120: 6cc7 fb3b e903 0f3c 17af 093c 0773 1ebd
00000130: 9539 d6ba 3649 973a 3de3 fabb 787b f5bc
00000140: 14f1 073b 4167 7bbb 5f61 4fbd 425e 71bb
00000150: ab84 54bc d70c f43a 01f0 04bd 3280 a0bc
00000160: 6c4e 203a 3324 ae3c b837 8bbc 8a7d f13b
00000170: 23a7 b13c 02e4 a7bc c14e 10bd 8c79 8d3c
00000180: 75a8 1dba e053 c639 b47c abbc 0430 ab3b
00000190: b502 423b 8784 f9bb 1d5f 123d e74a b43c
000001a0: a8b1 873a 940b 84bd 051c 103d e47a 91bc
000001b0: 09de 583d ed59 ca39 1c31 33bc 3e25 8f3c
000001c0: f1a4 8c3d 13ec f9bc 7152 96bb fca0 8f3c
000001d0: 0e30 fcba 6f47 d7bc 6b8e 2ebc f7b6 483d
000001e0: eefd ff3c 2829 3f3c ebae 90ba 2c4a 903c
000001f0: 3e64 32bc 2814 91bc 48da f23c 268c d3bc
00000200: 995b f13c c666 dabc b664 33bb 3ec9 d23c
00000210: 7ffa dbbc dcb0 083d 7fce 41bc 3c6a b13a
00000220: 3cda cabc a466 853c 2273 29bc 2bda 5a3c
00000230: 9e54 c6bb dd73 e93b 3ff3 4c3d b204 e8bb
00000240: 19e0 bdbc 9eb9 20bd f416 1ebd f082 fcbc
00000250: 0274 95bb a331 aabb 6a6a 983c 18e1 f13b
00000260: 9b29 31bc a31c dd3a a27c ea3b f0ff 45bd
00000270: 09de 9f3c 6a36 87bc 741c 803d 486f 0c3a
00000280: 6f76 0b3b 22ae 2b3d f1ad 673d ea09 49ba
00000290: 606d 643c 2130 24bb c7f0 3ebd 58cb b9bc
000002a0: c42d ce3c 79a5 623d cbbe d13b 5d65 ebba
000002b0: 69c0 00bd 4c48 183d 53fa 403d 3b5a 0c3c
000002c0: 268a 783d 3049 34bd 5dad a73b a417 eebc
000002d0: 2562 b63b d981 443d 326f ea3b 5d7f b33c
000002e0: 05a7 c33c 5563 ebbc 5991 e6bc 32bd 923c
000002f0: 562d 213b caef 21bc 2420 c9bc 245e f53c
00000300: c66d 863d eed2 7c3c e2ff 62bc 556c d9bc
00000310: 738d 933b 62e0 5ebc 0647 273b 3ccb 373c
00000320: 03a3 d6bb c99e 753c 7818 413c 28fd ccbc
00000330: b21f 063d 795f 23bd fe74 e9b8 9e5e bfbc
00000340: 2884 9e3d 2eb1 2dbc cbad 08b9 78cb 873c
00000350: bfb8 833d 2983 e0bc 257d abbc 1f0d 7539
00000360: eeba 23bd ec4e 4fbd e99a aebc 401e 493d
00000370: 9c80 0d3d f168 43bc df8d c8bb c228 be3c
00000380: 6ba5 8d3c dcf1 d7bb 4f1c 5f3d a0a8 ddbc
00000390: db13 ab3c 6889 96bc 050d 00bd 76ad 613c
000003a0: ba84 f3bc 6e8c 09bd c1a4 f03a 6159 bfbb
000003b0: 009d 553b 718b 5c3c 2c02 c03c 46f1 a33b
000003c0: 90f1 35bd 481d 543c 7b1b 0b3d 2622 3b3c
000003d0: 00f4 cebc 9a38 26bd 8b1b 7dbc 11be 75bc
000003e0: e864 20bd 46e3 1abc 1696 bdbb 2fc8 f03a
000003f0: 3135 cfbc 19a1 3cbc 69a8 9b3c 3130 32bd

bias f4 [5]
0.0138868615 -0.019948421 0.0033074287 0.0079252925 -0.010695937
00000000: b885 633c df6a a3bc 72c1 583b 16d9 013c
00000010: 033e 2fbc
