model.pt (torch, 31110 bytes, 3 tensors)

weight f4 [68, 50]
0	0x3f60a703	0.8775484
1	0xbf53e4e3	-0.8277113
2	0x3f8a6f2e	1.0815179
3	0x3e7fcb73	0.24979953
4	0xbeda7c58	-0.42672992
5	0x3fe9484a	1.8225186
6	0xbf012dd3	-0.5046055
7	0xbe221411	-0.15827967
8	0xc032fc15	-2.7966359
9	0xbf38caf0	-0.7218466
10	0xbf82a4dd	-1.0206562
11	0x3ff39bb7	1.9031895
12	0x3fac381b	1.3454622
13	0xbf43f5cd	-0.7654694
14	0xbff817c3	-1.9382252
15	0xbed9b350	-0.42519617
16	0xbf7e83f0	-0.9942007
17	0xbf6d4f38	-0.92699003
18	0xbfad3d01	-1.3534242
19	0xc0113307	-2.2687395
20	0xbfeebd6a	-1.8651555
21	0xbf9ddb90	-1.233263
22	0xbf9be2aa	-1.2178547
23	0xbf9cca20	-1.2249184
24	0x3fb17ccc	1.386621
25	0x3f27fe13	0.6562206
26	0x3f9323ec	1.1495337
27	0xbe45fcd9	-0.19334735
28	0xbe6c6b0a	-0.23087707
29	0xbf355137	-0.7082705
30	0x3f85a3b2	1.0440581
31	0x3e7594df	0.23982571
32	0x3e9dd73b	0.3082827
33	0xbedccc04	-0.43124402
34	0x3f226e62	0.6344968
35	0xbedbcf96	-0.42931813
36	0x3f9723e8	1.1807833
37	0xbcefff12	-0.029296432
38	0xbeb8e2b2	-0.36110455
39	0xbf300321	-0.68754774
40	0xbe76c2e2	-0.2409778
41	0xbec94e3a	-0.39317495
42	0xbf790f7d	-0.9728926
43	0xbef324ae	-0.47488922
44	0xc01c0576	-2.4378333
45	0x3f2e951b	0.68196267
46	0x3f8aca48	1.0842981
47	0x3f080e31	0.53146654
48	0x3ef880fd	0.4853591
49	0x3f2c3870	0.67273617
50	0xbfd0af50	-1.6303501
51	0x3eb1cfec	0.34728944
52	0xbcd2cc1f	-0.025732098
53	0x3f44609d	0.7670992
54	0xbefa78d2	-0.48920304
55	0x3f17da74	0.5931771
56	0xbe0b9a02	-0.13632968
57	0x3e1a30f5	0.15057738
58	0xbf204e7a	-0.62619746
59	0x3f4400b1	0.76563555
60	0xbec08710	-0.37603045
61	0xbf662f0d	-0.89915544
62	0xbf3188e6	-0.69349515
63	0xbf834b63	-1.0257381
64	0x3e0eed46	0.139577
65	0xbf819f8c	-1.0126815
66	0x3e757937	0.23972021
67	0x3f214778	0.6299968
68	0xbf840679	-1.0314475
69	0xbe8102e3	-0.25197515
70	0x3f24d96a	0.6439425
71	0x3f7e8be7	0.99432224
72	0xbf399b02	-0.7250215
73	0xbf3ad5fb	-0.7298276
74	0x3f0ec561	0.55769926
75	0x3da314d0	0.07962954
76	0x3c20a315	0.009804507
77	0x3eb16305	0.34645858
78	0xbdea122b	-0.114292465
79	0xbfa52ed5	-1.2904917
80	0xbf5465dc	-0.82967925
81	0xbf369864	-0.7132628
82	0xbee4e2f3	-0.447044
83	0xbf9f36b7	-1.2438573
84	0x3f4f940b	0.8108527
85	0x3ea77366	0.3270523
86	0x3f3c8add	0.7364939
87	0xbdf9f897	-0.12205618
88	0x3e8a3250	0.2699151
89	0x3e14a890	0.14517426
90	0x3e0a9207	0.13532268
91	0xbf864936	-1.0491092
92	0xbecf3acf	-0.40474555
93	0xbf0f8ee4	-0.5607741
94	0xbeb667cb	-0.35626063
95	0xbf158a36	-0.5841402
96	0xbe68bcdf	-0.22728299
97	0xbfb4d3c8	-1.412713
98	0xbf1f43e7	-0.62212986
99	0xbea50840	-0.32232857
100	0x3f56b0e0	0.8386364
101	0xbf17113a	-0.5901066
102	0xbd3d7cf9	-0.04626176
103	0xbf6f3cea	-0.9345232
104	0xbfaadea4	-1.3349195
105	0x3f3b04de	0.730543
106	0xbfa63b59	-1.2986861
107	0x3f6c954f	0.92415327
108	0xbf319a29	-0.69375855
109	0xbf852841	-1.040291
110	0xbffe6fc9	-1.9877864
111	0x3ec5c09e	0.38623518
112	0xbefc82c3	-0.49318513
113	0x3f9f94f4	1.2467332
114	0xbeed7e6f	-0.46385524
115	0xbfbd4ba7	-1.4788712
116	0xbf8bd1f1	-1.0923444
117	0x3e8589b6	0.26081628
118	0xbea20ae1	-0.31648925
119	0xbf0b7cf4	-0.5448754
120	0x3ec09217	0.37611458
121	0xbf4f8d9c	-0.81075454
122	0x3f4dcbaf	0.8038892
123	0x3f5f8233	0.87308043
124	0x3f2effdc	0.6835916
125	0xbf763be8	-0.9618516
126	0x3f5d911f	0.8654956
127	0x3f95300b	1.1655287
128	0x3d4f490d	0.050606776
129	0x3fcd8a68	1.6057863
130	0xbfdd47e4	-1.7287564
131	0x3e88a233	0.26686248
132	0x3f533240	0.8249855
133	0x40266ccb	2.6003902
134	0x3fde4b42	1.7366717
135	0x3e8c7c68	0.27438664
136	0x3bdd0961	0.006745503
137	0x3e945e29	0.28978088
138	0x3dd6e31b	0.10492536
139	0xbe959a2f	-0.29219195
140	0xbe864c1d	-0.26229945
141	0xbf8bb38f	-1.0914172
142	0x3e6f7846	0.23385724
143	0xbe767957	-0.24069725
144	0xbf9ae9bd	-1.2102581
145	0xbfe8cce1	-1.8187524
146	0x3ff00064	1.8750119
147	0x3ecf39a8	0.40473676
148	0xbe98fc5e	-0.2988004
149	0x40071aa2	2.1110005
150	0x3f728dbd	0.94747525
151	0xbfd41976	-1.657027
152	0x3f400933	0.75014037
153	0x40079581	2.1185
154	0x3bfac1af	0.0076524834
155	0x3ea57459	0.3231533
156	0x3db6a9be	0.089190945
157	0xbfb9a0e1	-1.4502221
158	0xbfc1df3f	-1.5146254
159	0xbfea7ad4	-1.8318734
160	0xbf27a3fc	-0.65484595
161	0x3fc4c921	1.537388
162	0xbe006651	-0.1253903
163	0x3f8f3a0c	1.118959
164	0x3fd4c7e2	1.6623499
165	0xbf9a553c	-1.2057261
166	0x3f3ba642	0.73300564
167	0x3df8ced8	0.12148827
168	0xbdfc8679	-0.12330336
169	0xbefb69fa	-0.4910429
170	0xbf281d80	-0.65670013
171	0x3eaa9d50	0.33323145
172	0xbf3ce050	-0.73779774
173	0x3f3a660e	0.72811973
174	0x3f820c4c	1.0160003
175	0xbd727d26	-0.059201382
176	0xbf2cb0a9	-0.6745706
177	0x3f8c501e	1.096195
178	0x3fa04efc	1.2524104
179	0x3f37722f	0.71658605
180	0xbf2e45fd	-0.68075544
181	0x3ee60e0b	0.4493259
182	0x4005bedf	2.0897748
183	0x3f859920	1.0437355
184	0xbefd3c8e	-0.49460262
185	0xbfb4c5fe	-1.4122922
186	0x3f73da3e	0.95254886
187	0x3eec60be	0.46167558
188	0x3fbd9c88	1.4813395
189	0x3ed1bac1	0.40962794
190	0x3eb64ea4	0.35606873
191	0x3f455d34	0.7709534
192	0x3ef133cb	0.47109827
193	0xbee091b5	-0.43861166
194	0x3fa14498	1.2599058
195	0x3fb615e6	1.4225433
196	0x3e8c65e4	0.27421486
197	0xbf94088d	-1.156511
198	0x3f1ce7e1	0.6129132
199	0x3e55ac96	0.20866618
200	0xbefdc108	-0.49561334
201	0x3da4279e	0.08015369
202	0x3f84fc2f	1.038946
203	0xbed55a53	-0.41670474
204	0xbf2209cb	-0.6329619
205	0xbfae3eac	-1.3612876
206	0xbcf8b645	-0.03036035
207	0x3ff8e54f	1.944498
208	0xbf1941a8	-0.5986581
209	0x3d237851	0.039909665
210	0xbf9147f5	-1.1350085
211	0x40207eb3	2.507733
212	0x3f1c9185	0.61159545
213	0xbf006f3a	-0.5016972
214	0x3ea9796e	0.33100456
215	0x3d24c82f	0.040229972
216	0xbf82ab55	-1.0208536
217	0xbebb60f4	-0.36597407
218	0x3de6fa51	0.11278213
219	0xbcd32a74	-0.02577708
220	0x3fa4f140	1.2886124
221	0xbf214672	-0.62998116
222	0x3f8e777c	1.1130214
223	0xbfb44f9e	-1.4086797
224	0x3f5040eb	0.81349057
225	0x3e8d6ab2	0.27620465
226	0xbf34ae52	-0.7057849
227	0x3e90214e	0.2815041
228	0xbf476468	-0.7788758
229	0x3eefa05a	0.46802026
230	0x3ee1d85a	0.44110376
231	0xbf16fd5e	-0.5898036
232	0x3f57181e	0.84021175
233	0xbfcd2e82	-1.6029818
234	0xbec930ab	-0.39294943
235	0xbf1f13ec	-0.62139773
236	0x3f5b3a68	0.85635996
237	0x3f0fd66e	0.5618657
238	0x3fb8d83b	1.4440988
239	0xbfcb32fd	-1.5874935
240	0xbd117644	-0.035513178
241	0xbe4e2cf2	-0.20134333
242	0x3d329fa7	0.043609288
243	0xbea164d2	-0.31522232
244	0x3f338652	0.7012683
245	0xbf5216ef	-0.82066244
246	0x3e36610e	0.17810461
247	0xbf4733cd	-0.77813417
248	0x3fa5251c	1.290195
249	0xbf0854ff	-0.53254694
250	0xbf6d7a52	-0.9276477
251	0x3f494fdc	0.7863748
252	0x3fd7ad3f	1.6849746
253	0x3f16fb85	0.5897754
254	0x3c0849e5	0.008318399
255	0xbf70ff1d	-0.9413927

weight f4 [3, 1100]
0	0x3d89c76a	0.06727488
1	0xbd96e644	-0.073681384
2	0x3d806353	0.062689446
3	0x3d18679d	0.03720819
4	0xbc1ac403	-0.009446147
5	0x3dcd6f4a	0.10030992
6	0xbcd855dd	-0.02640813
7	0xbc965ff0	-0.018356293
8	0xbe22fc8c	-0.15916651
9	0xbd1cf7ee	-0.03832238
10	0xbca71184	-0.020394094
11	0x3d87fdd5	0.066402115
12	0x3dd916c8	0.10600048
13	0xbd458433	-0.048221778
14	0xbdc96769	-0.09834177
15	0xbcdf2002	-0.027236942
16	0xbd46a4cb	-0.048497003
17	0xbd215d64	-0.039395705
18	0xbd8cebfd	-0.06880949
19	0xbdeaefca	-0.114715174
20	0xbdb9b65d	-0.09067986
21	0xbda31805	-0.07963566
22	0xbd779d62	-0.060452826
23	0xbd725689	-0.059164558
24	0x3d8ac992	0.06776728
25	0x3cd43b80	0.025907278
26	0x3b148257	0.0022660696
27	0x3cd6b007	0.026206983
28	0xbd8e270a	-0.0694104
29	0xbd80eb63	-0.062948965
30	0x3d5e245b	0.05423389
31	0x3cd57aff	0.026059626
32	0x3d3d5311	0.046221796
33	0x3d3c035b	0.045901638
34	0x3c1b213d	0.009468374
35	0x3c5faf00	0.013652563
36	0x3d4eddfb	0.050504666
37	0x3d246d05	0.04014303
38	0xbc4ccff4	-0.012500752
39	0xbb27bf76	-0.0025596297
40	0xbbd6a9c9	-0.0065510017
41	0xbd201d36	-0.039090358
42	0xbd141faa	-0.03616301
43	0xbd807b52	-0.062735215
44	0xbdb1738d	-0.08664618
45	0x3da268c0	0.07930136
46	0x3db51c18	0.08843249
47	0x3d03bac3	0.03216053
48	0x3d3453c5	0.0440252
49	0x3cd6bc01	0.026212694
50	0xb870ee5b	-5.7442445e-05
51	0xbca7d52d	-0.020487392
52	0x3c0ee5bd	0.008721766
53	0x3ca71487	0.02039553
54	0xbc476a45	-0.012171333
55	0xbc723853	-0.014783937
56	0xbd90c0ca	-0.070680216
57	0xbd063110	-0.032761633
58	0xbd2b234f	-0.04178172
59	0xbd49d704	-0.04927732
60	0xbcf0d969	-0.029400544
61	0xbb3ea367	-0.0029089095
62	0xbca22713	-0.019794023
63	0xbcec7c2a	-0.0288678
64	0xbcd9df8f	-0.026595859
65	0xbc13a3ab	-0.009011189
66	0xbb960eb2	-0.0045793885
67	0x3d7cf5b6	0.061757766
68	0xba75572c	-0.0009358998
69	0x3cbc3432	0.022974107
70	0x3d29521d	0.041338075
71	0xbd096ec3	-0.033552896
72	0xbc93d0ec	-0.018043958
73	0xbae5258b	-0.0017482502
74	0x3bb8b119	0.005636346
75	0xbbe14dc8	-0.0068757273
76	0x3c9db94a	0.019253392
77	0x3c9c6ae3	0.019093936
78	0x3cc974e9	0.02459188
79	0xbb309df4	-0.0026949616
80	0xbd038125	-0.032105584
81	0x3d0c9eb1	0.034331027
82	0xbd17d61e	-0.037069432
83	0x3c80a2f9	0.015702711
84	0x3ba4a159	0.005024117
85	0x3c170637	0.00921779
86	0x3ca885a3	0.020571535
87	0x3cb79093	0.022407806
88	0x3b8e13d6	0.0043358607
89	0x3d160abb	0.036631327
90	0xbd026b80	-0.0318408
91	0xbcb3263a	-0.021868814
92	0x3c6cd7c4	0.014455739
93	0xbc8810c5	-0.016609559
94	0x3cc9a842	0.024616364
95	0xbc72b253	-0.014813024
96	0xbc9de83c	-0.019275777
97	0xbbd26f66	-0.006421971
98	0xbc1f6172	-0.009727823
99	0x3c7db0f1	0.015484081
100	0xbc90f20e	-0.017693546
101	0xbd4f8998	-0.05066833
102	0x3c90f936	0.017696958
103	0x3cae9410	0.021310836
104	0xbca22f2a	-0.01979788
105	0xbcfa6dec	-0.030569993
106	0xbd245899	-0.040123556
107	0xbc1e4d99	-0.009662055
108	0xbcd55bad	-0.026044691
109	0xbd78a9a4	-0.060708657
110	0xbd1dcc7d	-0.038525093
111	0x3d93b73e	0.07212685
112	0xbd070287	-0.032961395
113	0x3b3a0e07	0.0028389709
114	0x3ccb8755	0.024844805
115	0xbba1dd46	-0.004939708
116	0xbca27171	-0.019829484
117	0x3ced0949	0.028935092
118	0xbd38097f	-0.04493093
119	0x3c0c0ea2	0.008548411
120	0x3c3d1194	0.0115398355
121	0x3c5eed51	0.013606385
122	0xbd3e74c6	-0.046498083
123	0xbbee48c1	-0.0072718565
124	0x3b0e6f42	0.0021733795
125	0xbcae5a4d	-0.021283293
126	0x3b49bbd7	0.0030782127
127	0x3d1b3969	0.037896547
128	0x3d784e4a	0.060621537
129	0x3c7e4e90	0.01552166
130	0x3d16ce67	0.036817934
131	0x3c805b4d	0.015668536
132	0x3dad2e6d	0.08456121
133	0x3c8aaf73	0.016929364
134	0x3d25a8e3	0.040444266
135	0xbd81e6c4	-0.06342843
136	0x3982b466	0.0002492994
137	0x3ba0d0d2	0.004907706
138	0x39f641bd	0.00046969755
139	0xbb901877	-0.0043974477
140	0xbadb40bf	-0.001672767
141	0x3cfddaaf	0.030988066
142	0x3b8c2462	0.004276798
143	0x3cd7a940	0.026325822
144	0x3ccdaf0c	0.025107883
145	0xbcb69e1e	-0.022292193
146	0x3c50a77f	0.012735247
147	0xbd272a5d	-0.040811885
148	0x3cb660f4	0.022263028
149	0x3a219215	0.00061634305
150	0xbc24a613	-0.010049361
151	0xbd7c5474	-0.06160398
152	0x3c8df998	0.01733093
153	0x3d5d9bc2	0.05410362
154	0xbcf46fd9	-0.02983849
155	0xbcf11dcb	-0.029433152
156	0xbccc67f5	-0.024951914
157	0x3b40c450	0.0029413886
158	0xbcbd132e	-0.023080435
159	0xbd8e4e0b	-0.06948479
160	0xbce1a8d2	-0.02754632
161	0x3d0d09f1	0.03443331
162	0xbcd75506	-0.02628566
163	0x3bdf79d1	0.0068199416
164	0x39f0cc05	0.00045928374
165	0xbd15a0d9	-0.03653035
166	0x3cc2db5b	0.023786237
167	0xbbf7d8d4	-0.0075636897
168	0x3c05f7d2	0.008176761
169	0xbbcefe81	-0.0063169603
170	0x3c3cc7c5	0.011522238
171	0x3d0775d0	0.03307134
172	0xbd8b1a56	-0.067921326
173	0xbc4540af	-0.012039348
174	0xba5e37e2	-0.0008476955
175	0xbaa2d83a	-0.001242406
176	0x3cdc50c3	0.026893979
177	0x3d3288e5	0.043587584
178	0x3c8631fb	0.016381254
179	0x3bdb9979	0.006701645
180	0x3c34a062	0.011024566
181	0x3d371ed9	0.044707153
182	0xbb3e70b0	-0.0029058866
183	0x3ceffc6d	0.02929517
184	0x3cdbae3a	0.026816476
185	0xbd1aa9d2	-0.03775961
186	0x3c89cb3e	0.016820546
187	0x3a717c59	0.00092119497
188	0x3cdb96a6	0.026805233
189	0x3d523cc2	0.051327474
190	0xbc4d58f2	-0.012533413
191	0x3ced5eb2	0.028975818
192	0x3d463ae9	0.048396025
193	0xb9e398af	-0.00043410572
194	0x3ca3051f	0.019899903
195	0xbafa5947	-0.0019100093
196	0x3b30a63d	0.0026954554
197	0xbc83d4d2	-0.016092692
198	0xbc6b1461	-0.01434812
199	0x3b997e73	0.0046842634
200	0xbb2f0082	-0.0026703184
201	0xbd03ecd9	-0.032208297
202	0x3d66d9ab	0.056359928
203	0x3d3c5ffa	0.045989968
204	0xbc5e9a38	-0.013586573
205	0x3c74c976	0.01494061
206	0xbc8a2102	-0.016861442
207	0xbb8921f2	-0.004184955
208	0x3c040b70	0.008059368
209	0xbcd0da3d	-0.02549469
210	0x3a9b7a13	0.0011861942
211	0x3cec7544	0.02886451
212	0xbc999708	-0.018748775
213	0x3bc5c2bb	0.0060351766
214	0x3bf4ac27	0.007466811
215	0xbd13ff06	-0.03613188
216	0x3d22422c	0.039613888
217	0x3c821ea5	0.015883753
218	0x3cf73d67	0.030180646
219	0x3cab600f	0.020919828
220	0x3be1c305	0.006889703
221	0xbaa19cc5	-0.0012330046
222	0xbd33d16a	-0.043900885
223	0x3c217f51	0.009857015
224	0x3ce0bed6	0.027434748
225	0x3cea5fb1	0.028610082
226	0xbcc329b2	-0.023823593
227	0x3b919487	0.0044427547
228	0x3d68aea7	0.056807186
229	0xbc542be4	-0.012949917
230	0x3c865263	0.016396707
231	0x3c177911	0.009245173
232	0x3b2fae83	0.0026806898
233	0x3d34e90f	0.044167574
234	0x3c702fc4	0.014659826
235	0xbd1992bc	-0.037493452
236	0x3c11e904	0.008905653
237	0x3c9b34f8	0.018946156
238	0xbc74c5e2	-0.014939757
239	0xbc07a541	-0.008279146
240	0xba8bf6c4	-0.00106784
241	0x3bc516c9	0.006014679
242	0x3d27850a	0.04089836
243	0xbc7e6dff	-0.015529155
244	0xbbad8d60	-0.005296394
245	0xbcb4653e	-0.022020932
246	0x3c0806ae	0.008302374
247	0xbd371268	-0.044695288
248	0x3c0b99fa	0.008520598
249	0x3c9a8297	0.018861098
250	0xbd2849c7	-0.041085985
251	0xbd20d9b0	-0.039270103
252	0x3cc521ba	0.024063934
253	0x3d205f33	0.03915329
254	0xbc546dd3	-0.012965637
255	0xbcd19b5e	-0.02558678

bias f4 [3]
0	0x3c90d02c	0.01767739
1	0xbb4cba02	-0.00312388
2	0x3d1657d4	0.036704853
