model.pt (torch, 34886 bytes, 3 tensors)

weight f4 [69, 50]
1.7930956 0.19296679 -0.5126174 1.1839678 0.31915554 -0.8376588 -0.41086018 -1.219753
0.7065021 -2.1355824 0.53143805 -1.5862757 -0.18893369 -1.9946245 0.7859387 0.238044
0.12468173 0.32250747 -0.75531095 -0.11255599 1.3356825 0.26473767 0.05621849 -1.9321817
-0.68857116 -0.67072535 1.7174348 1.1576108 0.33690864 -0.76763725 1.1740396 0.7358257
-1.9627286 1.7064584 -0.57592607 0.21005814 -0.47520107 -0.8464449 1.0432135 0.7897289
-0.101263486 0.015139669 -0.94990873 1.076705 -0.09726512 0.5622991 -0.63394934 1.3543149
-0.8468704 1.1129926 -1.5579869 0.4589017 -0.19252521 0.71543163 -0.27133238 0.5474779
0.9909476 -1.7017311 -2.2023067 0.4406255 0.9156895 -0.4280144 -1.4654574 2.7153418
-1.3666037 -0.062531956 0.10048748 -1.6153758 -0.05249998 -0.6690143 -0.107406765 1.02687
0.7354678 0.0025715 -0.07706982 -0.3721738 -0.83994776 -1.4797235 -1.1416694 -0.64871526
-0.07907807 -0.51776606 -0.32783276 0.34259298 -0.94736063 -0.7504069 0.74695414 -0.15974872
-1.2932402 -1.295331 -0.06694896 -0.12524274 -0.20177841 -0.5493057 1.3417958 0.6445074
-0.387066 0.1698846 0.70817465 -0.54622364 -2.2031271 -1.9311659 0.16653003 -0.8867492
-0.24085984 0.13796204 0.7680709 0.68253094 -0.8137398 0.64446974 0.7393454 -1.419414
-0.23511398 0.25665587 1.3799816 -0.2811228 -0.8178481 0.90786076 -1.3555031 0.09715333
-0.26067773 0.7483289 0.38896996 -0.07858615 0.079386525 -0.6898191 -1.4041368 1.1703577
0.60637945 0.48280114 0.39158365 -0.88134456 -0.45385802 0.8230685 -0.31892338 -0.9992863
-1.9945307 0.8200426 -0.679719 -0.5482983 1.4082705 0.554152 -0.1909168 -0.66745675
1.1525187 -0.28841665 -1.3247755 -0.024217773 0.1679704 3.3712492 -0.900902 -2.8957357
0.0878226 -0.16310836 0.1718831 -0.036704503 0.9063906 -0.24347895 0.036322895 -2.3232026
0.08201024 0.008863055 0.6428438 -0.2641318 -0.64151686 -0.9323025 -0.5243409 -0.12980287
-0.53619224 0.81877863 -0.21148303 -0.5347866 0.7279282 2.0992856 -0.13489914 -1.0048593
-0.24588905 1.5944059 0.17841469 -0.8790704 0.089264356 -0.15963626 -0.7788914 0.32409582
0.24674235 0.10931515 1.8776032 0.07650427 0.6428425 0.17269939 0.54794085 1.2047457
-0.8320877 0.7437785 -0.8876047 -0.5452692 -0.71038234 -0.7409096 -0.3791695 0.85824364
-0.6899748 -0.87936604 -0.50594944 -0.23650703 -0.41943225 -0.38346732 -0.49149865 -0.31678125
-0.67801005 -0.08342768 -0.7048555 -2.2443883 0.96461964 -0.53276676 -0.33737278 0.016981717
2.1867824 -1.3031166 0.26929387 0.44499686 -0.3255422 0.8447686 0.8469975 -0.6511645
-0.26793993 1.3452543 0.40997577 -1.0318049 -0.2329183 -2.345908 0.078137726 0.48684603
-0.17826465 0.9004373 0.53297824 1.82723 -1.5494546 0.6554711 -0.6368978 0.28673378
-0.06731047 0.041154947 0.33968708 0.20376146 0.68099827 -1.2875794 -0.18731837 -0.537182
0.39075553 0.49808574 0.09657765 -0.4007792 0.59461963 0.70357996 -0.59000427 1.0612242
00000000: 2884 e53f 1699 453e e53a 03bf 428c 973f
00000010: 5b68 a33e cf70 56bf 445c d2be de20 9cbf
00000020: 52dd 343f 62ad 08c0 530c 083f 150b cbbf
00000030: d577 41be db4f ffbf 4733 493f cec1 733e
00000040: 2359 ff3d b31f a53e 0f5c 41bf c183 e6bd
00000050: a5f7 aa3f b28b 873e 5c45 663d bb51 f7bf
00000060: 3346 30bf a8b4 2bbf e7d4 db3f 972c 943f
00000070: 4a7f ac3e e083 44bf ee46 963f 135f 3c3f
00000080: b13a fbbf 3b6d da3f e46f 13bf 7b19 573e
00000090: 8e4d f3be 9db0 58bf 0588 853f ac2b 4a3f
000000a0: 3b63 cfbd 600c 783c 382d 73bf 78d1 893f
000000b0: ef32 c7bd d5f2 0f3f 814a 22bf 315a ad3f
000000c0: 80cc 58bf 8b76 8e3f 1d6c c7bf 2af5 ea3e
000000d0: 5425 45be 8726 373f 14ec 8abe 8327 0c3f
000000e0: beae 7d3f 53d2 d9bf 98f2 0cc0 aa99 e13e
000000f0: a16a 6a3f b424 dbbe 1c94 bbbf 29c8 2d40
00000100: dfec aebf c110 80bd 61cc cd3d a2c4 cebf
00000110: 380a 57bd 8544 2bbf 14f8 dbbd 7a70 833f
00000120: 9e47 3c3f 9c86 283b c8d6 9dbd 908d bebe
00000130: d106 57bf 9467 bdbf 3922 92bf 3412 26bf
00000140: aff3 a1bd 518c 04bf b2d9 a7be 5968 af3e
00000150: 3a86 72bf ab1a 40bf 6338 3f3f 2b95 23be
00000160: e588 a5bf 68cd a5bf 891c 89bd a23f 00be
00000170: 009f 4ebe 4c9f 0cbf f7bf ab3f 70fe 243f
00000180: 842d c6be 3bf6 2d3e ef4a 353f 50d5 0bbf
00000190: 0900 0dc0 7230 f7bf d986 2a3e ff01 63bf
000001a0: f6a3 76be ec45 0d3e 4ba0 443f 59ba 2e3f
000001b0: 4051 50bf f8fb 243f bd45 3d3f 5caf b5bf
000001c0: b8c1 70be 6668 833e 3da3 b03f 54ef 8fbe
000001d0: 7e5e 51bf 9069 683f 2081 adbf 53f8 c63d
000001e0: 8d77 85be 7c92 3f3f 1227 c73e c7f1 a0bd
000001f0: 6795 a23d fc97 30bf c1ba b3bf 48ce 953f
00000200: af3b 1b3f b631 f73e a77d c83e cc9f 61bf
00000210: 1460 e8be 9eb4 523f ed49 a3be 3ad1 7fbf
00000220: c84c ffbf 50ee 513f 1002 2ebf 475d 0cbf
00000230: 3542 b43f e8dc 0d3f b27f 43be 72de 2abf
00000240: bc85 933f 59ab 93be 3e92 a9bf 5a64 c6bc
00000250: 6f00 2c3e 8cc2 5740 83a1 66bf bc53 39c0
00000260: 56dc b33d e105 27be 2002 303e 7657 16bd
00000270: 3709 683f 8c52 79be 51c7 143d 5aaf 14c0
00000280: fcf4 a73d 5936 113c 6991 243f 493c 87be
00000290: 733a 24bf 60ab 6ebf 353b 06bf 0beb 04be
000002a0: e543 09bf 7a9b 513f 028f 58be c6e7 08bf
000002b0: 8159 3a3f b25a 0640 0023 0abe 3b9f 80bf
000002c0: 57ca 7bbe 7e15 cc3f 57b2 363e c20a 61bf
000002d0: 3bd0 b63d b077 23be 6d65 47bf e3ef a53e
000002e0: 07aa 7c3e 9fe0 df3d 4d55 f03f 45ae 9c3d
000002f0: 5391 243f 1cd8 303e da45 0c3f 1b35 9a3f
00000300: b303 55bf 4568 3e3f 103a 63bf c396 0bbf
00000310: 9edb 35bf 40ac 3dbf 8122 c2be dbb5 5b3f
00000320: 30a2 30bf 221e 61bf e785 01bf e62e 72be
00000330: d3bf d6be d455 c4be b6a5 fbbe 2731 a2be
00000340: 1192 2dbf 22dc aabd 6971 34bf 0fa4 0fc0
00000350: 50f1 763f 6763 08bf 20bc acbe 3e1d 8b3c
00000360: 3ef4 0b40 86cc a6bf e3e0 893e a1d6 e33e
00000370: 78ad a6be c142 583f d4d4 583f b7b2 26bf
00000380: 6c2f 89be 4b31 ac3f 58e8 d13e 2f12 84bf
00000390: 2382 6ebe 5b23 16c0 ac06 a03d e243 f93e
000003a0: 028b 36be 0f83 663f 4371 083f ace2 e93f
000003b0: 8754 c6bf f4cc 273f bc0b 23bf c5ce 923e
000003c0: 12da 89bd 1792 283d 77eb ad3e d8a6 503e
000003d0: e755 2e3f 67cf a4bf 63d0 3fbe c284 09bf
000003e0: 1c11 c83e 1805 ff3e 81ca c53d ee32 cdbe
000003f0: fe38 183f d11d 343f 850a 17bf 32d6 873f

weight f4 [4, 1050]
0.16754334 0.007237715 -0.008610285 0.07167535 -0.0008047678 -0.068161346 -0.025717217 -0.08416689
0.029965786 -0.13143349 0.045922 -0.1257454 -0.032921586 -0.14391989 0.034946658 -0.022398023
0.00993705 0.059383836 -0.04269818 -0.06344387 0.04905009 0.020075759 -0.034691934 -0.1377834
-0.06876628 -0.048227943 0.1560696 0.11927744 0.031150306 -0.038879246 0.09539751 0.08152456
-0.1366352 0.11928602 -0.008824771 0.054459378 -0.021202475 -0.068400756 0.09149711 0.07750545
-0.0067020403 -0.03562924 -0.04478803 0.05714074 0.024403393 0.086293645 -0.030758983 0.059742607
-0.013908247 0.067058004 -0.035316702 -0.012595911 -0.042346384 -0.010799027 0.012817585 -0.04381047
0.026467504 -0.008380807 -0.03051283 -0.010336884 0.03722216 0.0022595006 -0.011281092 0.024611158
0.033278584 -0.0178969 0.024659814 -0.004878589 0.010983338 0.02738952 0.000328054 0.0016133141
0.0150335 -0.07644724 0.051359612 -0.008295841 -0.02306625 0.026103832 0.034103695 -0.041845907
0.00047682627 0.003122692 -0.002685082 0.0073527624 0.07485452 0.0025473796 -0.0022162753 0.0067243497
-0.04563285 -0.037195936 0.0074272044 0.050930526 0.032124095 -0.0023785087 -0.023438307 -0.015201823
-0.025429752 0.016719108 -0.042514227 -0.015256168 -0.00081391766 -0.07402477 -0.033633407 -0.0009943302
0.014547881 -0.021945091 0.086653 -0.015792236 -0.033915527 -0.03329447 0.039611384 0.050157357
0.024092501 0.06841268 -0.012834496 -0.054334063 -0.016130771 -0.01241493 -0.007080989 0.06535311
0.0051579117 -0.027173024 0.008298484 0.01625273 0.007849393 -0.06286068 -0.009731781 0.037626684
0.039211698 -0.04124708 -0.009744809 0.00219556 -0.013152784 -0.011071271 0.031887185 -0.05085726
0.016788118 -0.0068416777 -0.070970215 -0.050654173 -0.02861909 0.03252553 0.027458735 0.020222653
0.0062152147 -0.01788539 -0.010240059 -0.0137858 0.0011428546 -0.013750078 -0.04532877 -0.021125639
0.021275999 -0.023963008 0.009702188 0.020344704 0.047737043 -0.011674211 -0.053172242 -0.05103282
0.018006759 0.0038724171 0.0016534507 -0.014995904 -0.028318476 -0.02508474 -0.016287899 0.027182879
-0.01183206 0.04843728 -0.017094992 0.004487684 0.048108958 0.018996563 -0.009144911 -0.004961987
0.013929071 0.06551165 -0.017461542 -0.03588813 -0.010018144 0.0006334299 0.02682498 0.006502815
-0.018407283 0.015618758 0.01823508 -0.004503543 -0.02782857 0.0009418205 0.04686771 0.051404
0.0110251075 -0.026396433 -0.007999167 -0.023135947 -0.030026313 -0.024573477 -0.029858658 0.032079075
0.016636945 -0.014553394 -0.022718577 -0.049285028 -0.019391453 0.032089084 0.018033933 0.017620645
-0.017582625 -0.017353088 0.056960624 -0.036829393 0.006027013 0.03427627 -0.0326395 -0.02336316
0.020248497 -0.010460841 0.022170385 0.03294367 0.014504762 -0.018776515 0.04764967 0.06786255
0.014086911 -0.042668197 -0.028262151 0.042059988 -0.0033771554 0.0036471875 -0.039496504 -0.005226773
0.0107824765 -0.019972758 0.022433197 0.018131346 -0.02154377 -0.051118188 0.0026047388 -0.027745338
0.028982714 0.007121212 0.0016257941 -0.025557812 0.011690549 0.032624178 0.0095336735 0.0069369087
-0.011999933 0.0015593134 -0.007081857 -0.049120303 -0.021868434 -0.00874674 0.005598723 0.0010290405
00000000: 7b90 2b3e 5b2a ed3b 2712 0dbc 87ca 923d
00000010: 0ef7 52ba 2d98 8bbd eaac d2bc b15f acbd
00000020: cf7a f53c 8096 06be b518 3c3d 67c3 00be
00000030: c9d8 06bd bc5f 13be 3a24 0f3d 0f7c b7bc
00000040: 02cf 223c 773c 733d 49e4 2ebd dcee 81bd
00000050: bfe8 483d eb75 a43c 2119 0ebd 1717 0dbe
00000060: 56d5 8cbd aa8a 45bd b6d0 1f3e bb47 f43d
00000070: ed2e ff3c d83f 1fbd c55f c33d 59f6 a63d
00000080: 19ea 0bbe 3b4c f43d c695 10bc cc10 5f3d
00000090: d0b0 adbc b215 8cbd d662 bb3d 2dbb 9e3d
000000a0: ca9c dbbb f7ef 11bd a773 37bd 690c 6a3d
000000b0: a0e9 c73c b9ba b03d 43fa fbbc aab4 743d
000000c0: 6bdf 63bc b555 893d 3fa8 10bd 145f 4ebc
000000d0: 6773 2dbd 67ee 30bc d900 523c 9b72 33bd
000000e0: 61d2 d83c a74f 09bc 0bf6 f9bc 095c 29bc
000000f0: 4376 183d 2114 143b 54d4 38bc 579d c93c
00000100: 204f 083d 859c 92bc 6103 ca3c 92dc 9fbb
00000110: 75f3 333c fd5f e03c aafe ab39 d775 d33a
00000120: 124f 763c 5f90 9cbd 755e 523d 47eb 07bc
00000130: 6ff5 bcbc b4d7 d53c 51b0 0b3d 9d66 2bbd
00000140: 8afe f939 14a6 4c3b 33f8 2fbb 71ef f03b
00000150: 544d 993d f0f1 263b ee3e 11bb ef57 dc3b
00000160: 83e9 3abd c45a 18bd e85f f33b 879c 503d
00000170: 8e94 033d c1e0 1bbb b101 c0bc 1111 79bc
00000180: 0e52 d0bc 83f6 883c 6623 2ebd 02f5 79bc
00000190: 175d 55ba 4c9a 97bd 2fc3 09bd 2f54 82ba
000001a0: 3c5a 6e3c 31c6 b3bc 2177 b13d b85e 81bc
000001b0: 02eb 0abd c85f 08bd 8c3f 223d cd71 4d3d
000001c0: a35d c53c f21b 8c3d c747 52bc 658d 5ebd
000001d0: ae24 84bc fe67 4bbc a407 e8bb dad7 853d
000001e0: b303 a93b f699 debc 5df6 073c 7224 853c
000001f0: be9a 003c 1abd 80bd 0c72 1fbc 701e 1a3d
00000200: 729c 203d b3f2 28bd b1a8 1fbc 62e3 0f3b
00000210: c67e 57bc 4764 35bc 239c 023d b44f 50bd
00000220: 3c87 893c 2730 e0bb d558 91bd c07a 4fbd
00000230: 9572 eabc 7d39 053d 24f1 e03c faa9 a53c
00000240: 00a9 cb3b 6284 92bc ecc5 27bc d6dd 61bc
00000250: d6cb 953a 0248 61bc a9aa 39bd ad0f adbc
00000260: 014b ae3c 124e c4bc edf5 1e3c f0a9 a63c
00000270: eb87 433d 3145 3fbc 23cb 59bd ca07 51bd
00000280: e982 933c 61c8 7d3b 99b8 d83a 61b1 75bc
00000290: 26fc e7bc 837e cdbc 336e 85bc a1ae de3c
000002a0: 42db 41bc 2b66 463d cc0a 8cbc 6c0d 933b
000002b0: e60d 453d ae9e 9b3c 89d4 15bc 2a98 a2bb
000002c0: c236 643c f92a 863d 820b 8fbc 6fff 12bd
000002d0: 2423 24bc c30c 263a 0fc0 db3c 9115 d53b
000002e0: dfca 96bc d2e5 7f3c bc61 953c 7592 93bb
000002f0: bef8 e3bc 81e4 763a 5bf8 3f3d 008d 523d
00000300: a7a2 343c 553d d8bc f00e 03bc 9987 bdbc
00000310: bef9 f5bc 514e c9bc 259a f4bc 5965 033d
00000320: 344a 883c 5c71 6ebc 4f1c babc 19df 49bd
00000330: d3da 9ebc d86f 033d e6bb 933c 2c59 903c
00000340: 7009 90bc 1028 8ebc 8b4f 693d 6bda 16bd
00000350: 407e c53b 4665 0c3d ffb0 05bd 1964 bfbc
00000360: 2de0 a53c f263 2bbc ab9e b53c f1ef 063d
00000370: 62a5 6d3c 35d1 99bc 4d2c 433d 85fb 8a3d
00000380: cacc 663c d9c4 2ebd 0786 e7bc 1847 2c3d
00000390: 4453 5dbb a705 6f3b 16c7 21bd 5a45 abbb
000003a0: fca8 303c e99d a3bc d3c5 b73c 3088 943c
000003b0: 8f7c b0bc 4e61 51bd 44b4 2a3b 314a e3bc
000003c0: 286d ed3c 0e59 e93b 9918 d53a 9e5e d1bc
000003d0: b789 3f3c eea0 053d 2033 1c3c 024f e33b
000003e0: 5e9b 44bc e061 cc3a ec0e e8bb 5f32 49bd
000003f0: 6e25 b3bc 7d4e 0fbc 7e75 b73b dfe0 863a

bias f4 [4]
-0.009861378 -0.010326023 -0.019598955 0.027853943
00000000: 9e91 21bc 7b2e 29bc fd8d a0bc f42d e43c
