model.pt (torch, 670918 bytes, 3 tensors)

weight f4 [86, 200]
0	0xbedcfd39	-0.43161944
1	0xbf297be2	-0.66204655
2	0x3f87e3db	1.0616411
3	0xbfbc6d52	-1.4720862
4	0x40125abe	2.2867885
5	0x3e6ff516	0.23433337
6	0x3e4c50af	0.19952653
7	0xbf97f8ac	-1.1872764
8	0x3f2a77a4	0.6658881
9	0xbf4de76d	-0.8043125
10	0x3f91b0a1	1.1382028
11	0xc03ee739	-2.9828627
12	0xbe472641	-0.19448186
13	0xbffd3c9c	-1.9784122
14	0xbe9112f3	-0.2833477
15	0xbf9d729b	-1.23006
16	0xbfc45cac	-1.5340781
17	0x3ff0e5d8	1.8820143
18	0xbf89d1e0	-1.0767174
19	0xbf4e9a8a	-0.8070456
20	0x3fb0434c	1.3770537
21	0x3f184f8a	0.59496367
22	0x3f89889a	1.0744812
23	0xbf947042	-1.1596758
24	0xbec9216b	-0.39283308
25	0xbe934e46	-0.28770655
26	0x3f293baa	0.66106665
27	0x3f448643	0.7676737
28	0x40070218	2.1095028
29	0xbeabb686	-0.33537692
30	0xbf044365	-0.51665336
31	0x3fdf1417	1.7428006
32	0x3e74dc39	0.23912133
33	0x3f1f75b3	0.6228897
34	0x3e09b5be	0.13448235
35	0x3fa5f81d	1.2966343
36	0x3e527cc8	0.20555413
37	0xbeab8b96	-0.33504933
38	0x3cddad70	0.02706024
39	0xbf9a9e01	-1.2079469
40	0xbf57cbee	-0.84295547
41	0xbf27cdfe	-0.65548694
42	0x3c812b85	0.015767822
43	0x3f427b87	0.7596974
44	0x3fabc579	1.3419639
45	0x3e983a92	0.29732186
46	0xbfc362e1	-1.526455
47	0xbf5ddb76	-0.86662996
48	0xbf9e33c2	-1.2359545
49	0xbf2950e2	-0.6613904
50	0xbee0cb6f	-0.43905208
51	0xbeea0611	-0.45707753
52	0x3e33fe85	0.1757756
53	0xbf199895	-0.59998447
54	0xbf4f2932	-0.80922234
55	0x3e3d8fcb	0.18511884
56	0x3efe3b90	0.49654818
57	0xbdf2a600	-0.11848068
58	0xbf95b8fa	-1.1697075
59	0x4003de14	2.0604296
60	0xbf99df9b	-1.2021364
61	0x3fa75665	1.307324
62	0x3fe65390	1.7994251
63	0x3e4db5dc	0.20088905
64	0x3f97deb0	1.1864834
65	0xbeaada71	-0.33369783
66	0xbf85e9bb	-1.0461954
67	0x3eef2a4e	0.46711963
68	0xbefb6814	-0.49102843
69	0x3f60c087	0.87793773
70	0x3f74f2f7	0.95683235
71	0xbf5a2876	-0.8521799
72	0x3f2d7a3f	0.6776466
73	0xbe8cb1b6	-0.27479333
74	0xbf3e35b2	-0.7430068
75	0xbe745f52	-0.23864487
76	0xbfa69808	-1.3015146
77	0x3efbffb9	0.49218538
78	0xbebaf1b8	-0.36512542
79	0x3f02520d	0.5090645
80	0x3f6668cc	0.9000366
81	0xbe731635	-0.2373894
82	0x3f5466dd	0.82969457
83	0x40288338	2.633009
84	0x3e3a3bf9	0.1818694
85	0xbfd9c840	-1.7014236
86	0xbe2a357e	-0.16621968
87	0xbf561773	-0.8362953
88	0xbeb097bf	-0.34490773
89	0xbf004750	-0.50108814
90	0xc0026369	-2.0373175
91	0xbf5e707e	-0.868904
92	0x3f7f8967	0.99819034
93	0xbf725807	-0.9466557
94	0x3f386792	0.72033036
95	0x3f1fa064	0.6235411
96	0xbe9d2dc9	-0.30698994
97	0x3fce9299	1.6138488
98	0x3f742a71	0.9537726
99	0xbd40d436	-0.04707738
100	0xbef6abe4	-0.48178017
101	0x3c8b10c2	0.016975764
102	0xbf965ee2	-1.1747706
103	0x3fad87fd	1.3557125
104	0xbf441f8f	-0.76610655
105	0xbf00f476	-0.5037302
106	0x3f0bdeeb	0.5463702
107	0x4005c3d0	2.0900764
108	0x3f7d76da	0.9900948
109	0xbf2d7f21	-0.6777211
110	0xbfb64451	-1.4239599
111	0x3f86198a	1.0476544
112	0xbf587bee	-0.845641
113	0xbfe0c1a1	-1.7559091
114	0xbf89d027	-1.0766648
115	0x3e2d8d11	0.16948344
116	0xbf67403c	-0.9033239
117	0x3c0c3e51	0.008559779
118	0xbcd69535	-0.026194194
119	0x3f865414	1.0494409
120	0x3f745aee	0.9545125
121	0x3e9d39b0	0.30708075
122	0x3eaf47b1	0.34234384
123	0x3ecf745f	0.40518472
124	0x3ed8bbe0	0.42330837
125	0xbf1bd341	-0.6086922
126	0xbf5cc356	-0.8623556
127	0xbfe1caca	-1.7640011
128	0x3fb4a7f2	1.4113753
129	0x3dc45e91	0.095883496
130	0x3f3d8ebb	0.74045914
131	0x3e8e1be8	0.27755666
132	0xbff3227e	-1.8994901
133	0x3f86d482	1.0533602
134	0x3c449740	0.011998951
135	0x3f1cd88e	0.61267936
136	0xbe9ca9aa	-0.30598193
137	0x3f830cb8	1.0238256
138	0xbf5b3059	-0.8562065
139	0x3f28019b	0.6562745
140	0x4007adad	2.1199753
141	0xbefc683f	-0.49298283
142	0xbe1b054e	-0.15138742
143	0x4011f092	2.2803082
144	0x3ebe9294	0.37221205
145	0xbebe654b	-0.37186655
146	0xbd677eb4	-0.056517318
147	0xbf21e208	-0.6323552
148	0x3f4fa308	0.8110814
149	0xbde5b534	-0.112162024
150	0xbf69f305	-0.91386443
151	0x3fa0b1b2	1.2554228
152	0xbfaccbf4	-1.3499742
153	0xbf9150b4	-1.1352754
154	0x3ef2b8b2	0.47406536
155	0x3fe3648a	1.7765057
156	0xbc3f9723	-0.011693749
157	0xc0513017	-3.2685602
158	0x3fb082b3	1.3789886
159	0x3ea9d628	0.331712
160	0xbec4c48c	-0.38431203
161	0xc004338b	-2.065646
162	0x3fd01478	1.6256247
163	0xbdc76706	-0.09736447
164	0x3f4b83b5	0.79497844
165	0xbfa1a02c	-1.2627006
166	0xbfe60b95	-1.7972285
167	0xbd1373dd	-0.035999168
168	0x3ee8f29c	0.45497596
169	0x3ede3526	0.43399924
170	0xbfaec71e	-1.3654516
171	0xbed251ec	-0.41078126
172	0x3e2cd95f	0.16879795
173	0x40245904	2.567933
174	0x3fd629b1	1.6731473
175	0xbe7fcc40	-0.24980259
176	0x3e7b1c31	0.24522473
177	0x3dea8fd8	0.11453217
178	0xbdeec8f5	-0.11659423
179	0xbf6007b2	-0.8751174
180	0x3e807159	0.25086477
181	0x3f9ceb6e	1.2259347
182	0x3ca88ebf	0.02057588
183	0x3d5fbb0c	0.05462174
184	0x3f69bd72	0.91304696
185	0x3f971cdf	1.1805686
186	0x3e9da148	0.3078711
187	0xbe2817d9	-0.16415347
188	0xbf8d2ee5	-1.1029936
189	0xbf7e5297	-0.9934477
190	0x3f6378f6	0.88856447
191	0xbf5277dc	-0.8221414
192	0x3ea4a7fe	0.32159418
193	0xbfecc7a7	-1.8498429
194	0xbe96842d	-0.29397717
195	0xbe41f515	-0.18941148
196	0x3f968d98	1.1761961
197	0x3fcf146b	1.6178106
198	0xbe052319	-0.1300167
199	0xbeb19e76	-0.3469121
200	0xbf615cc4	-0.88032174
201	0xbf2a3600	-0.6648865
202	0xbfb6be1f	-1.427677
203	0x3e3ec53a	0.18629923
204	0xbf6482fd	-0.8926237
205	0xbdc435a7	-0.09580546
206	0xbf62813b	-0.8847844
207	0x400de9dd	2.217399
208	0xc00e700a	-2.2255883
209	0xbed7b02e	-0.42126602
210	0xbd8f62fa	-0.070013
211	0x3fcac518	1.5841398
212	0xbe8e5169	-0.27796486
213	0x3f485cf5	0.7826684
214	0xbeb74583	-0.3579522
215	0x3f24c9ce	0.6437043
216	0xbe090f0c	-0.13384646
217	0xbf3f05c6	-0.74618185
218	0xbde6e3e2	-0.11273934
219	0xbe0a7f11	-0.13525034
220	0xbfd3ad5e	-1.6537282
221	0xbdf49f9c	-0.119445056
222	0xbf8c5dbd	-1.0966107
223	0x3eb93a1a	0.3617714
224	0x40239709	2.5560935
225	0xbf99563a	-1.1979439
226	0xbf8893dd	-1.0670124
227	0x3f1b37df	0.6063213
228	0x40425a60	3.036766
229	0x3f9c3df3	1.2206405
230	0x3ea3ecef	0.32016703
231	0xc0084d8b	-2.1297328
232	0x3ef339ce	0.4750504
233	0xbf1cc890	-0.61243534
234	0xbf7a8c6e	-0.9787053
235	0xbeef29fa	-0.46711713
236	0x3e8ffcb8	0.28122497
237	0x3f39a5bc	0.72518516
238	0x3f6e92f6	0.93192995
239	0xbf84ada1	-1.0365487
240	0x3ddcb359	0.10776395
241	0x3e112ed1	0.14178015
242	0xc0190b92	-2.3913312
243	0x3f85f730	1.0466061
244	0xbee88ffc	-0.4542235
245	0x3efd3e27	0.4946148
246	0xbff9a1bd	-1.9502484
247	0x3f0f57e0	0.5599346
248	0x3f89e330	1.0772457
249	0x3f157ba0	0.5839176
250	0x3d64e8e9	0.055886183
251	0xbf853169	-1.0405704
252	0xc0068590	-2.101902
253	0xbf80849a	-1.0040467
254	0x3e901d37	0.2814729
255	0x3fb87625	1.4411055

weight f4 [9, 16600]
0	0x39dd8516	0.00042251562
1	0x3bf41177	0.007448371
2	0x3c499bab	0.012305181
3	0xbccd586c	-0.025066577
4	0x3d0d8987	0.034554984
5	0x3d174544	0.03693129
6	0xbd159e2d	-0.0365278
7	0x3d06e0c5	0.0329292
8	0xbc9f7173	-0.019463276
9	0x3cea068c	0.028567575
10	0x3c01aebe	0.007915197
11	0xbc9d6eaa	-0.019217808
12	0xbc18782e	-0.009305997
13	0xbd76eac2	-0.060282476
14	0x3ba358ad	0.004984936
15	0x3b17374e	0.0023073736
16	0xbcdce46a	-0.026964385
17	0x3d6fe908	0.058571845
18	0xbc22b0bf	-0.009929835
19	0xbcd223f7	-0.025651915
20	0xbd1c681e	-0.03818523
21	0xbc45398f	-0.012037649
22	0xbcd97c10	-0.026548415
23	0x3bcec897	0.0063105333
24	0xbc6b242b	-0.014351885
25	0x3d283517	0.041066255
26	0x3cb0bb10	0.021573573
27	0x3c42c39f	0.01188746
28	0x3c5a2a34	0.013315726
29	0x3cb5692d	0.022144878
30	0xbc68aac0	-0.014200866
31	0x3a14cf5c	0.0005676651
32	0x3c40b8fa	0.011762852
33	0xbbd1482c	-0.0063867774
34	0xbc7c7855	-0.015409549
35	0xbd0cece6	-0.03440561
36	0xbccdfaf6	-0.025144082
37	0xbb1475c4	-0.0022653202
38	0xbc57e94d	-0.013178182
39	0xbc88aab7	-0.016682966
40	0xbba2acd5	-0.004964451
41	0xbcf58037	-0.029968364
42	0xbd068f2e	-0.03285139
43	0x3afc0213	0.0019226692
44	0x39209d72	0.00015317442
45	0xb8d54574	-0.00010169568
46	0x3d17d534	0.03706856
47	0x3c46f267	0.012142754
48	0xbb9bc9b3	-0.004754269
49	0xbc77e0b2	-0.015129255
50	0xbad6867c	-0.0016366984
51	0xbcdd5f40	-0.027022958
52	0xbcb1bdeb	-0.021697005
53	0x3c5fee56	0.013667664
54	0xbcd73c71	-0.026273938
55	0x3d25b47e	0.040455334
56	0xbc32eb7c	-0.010920402
57	0xbd17d5c4	-0.037069097
58	0xbcdc8337	-0.026918037
59	0xbc8bdb0a	-0.01707222
60	0xbcc59272	-0.024117682
61	0x39faca26	0.00047834328
62	0x3d35dc1f	0.044399377
63	0xbb3fc0aa	-0.0029259124
64	0x3b53358f	0.0032227968
65	0xbbafc115	-0.0053635933
66	0x3a8c137f	0.0010686963
67	0x39f4b7d0	0.00046676258
68	0xbcabe29d	-0.020982081
69	0x3b620423	0.003448733
70	0x3c7d2d4e	0.015452696
71	0x3cb44925	0.022007534
72	0x3c3b661d	0.01143792
73	0xbcc43d39	-0.023954974
74	0xbbd3aec7	-0.006460044
75	0xbc0ff392	-0.008786099
76	0xbc35eacf	-0.011103346
77	0xbca4dabb	-0.02012383
78	0xbd15fbc6	-0.036617063
79	0xbcbe6242	-0.023240212
80	0xbcf1a2ee	-0.029496636
81	0x3c043546	0.008069342
82	0xbcbb9cc6	-0.022901904
83	0xbd3bebe5	-0.045879263
84	0xbcaba624	-0.020953245
85	0x3ce0327d	0.027367825
86	0x3c05ee35	0.008174469
87	0xbc6658f0	-0.01405929
88	0x3c9c42b5	0.019074777
89	0xbb6cb0b5	-0.0036116068
90	0xbc88aa15	-0.016682664
91	0xbcb759f9	-0.02238177
92	0x3c3e5027	0.0116157895
93	0x3bb810b7	0.005617227
94	0x3c61d96b	0.013784747
95	0x3d1dae9b	0.038496595
96	0xbc9e1942	-0.019299153
97	0x3c874090	0.016510278
98	0xbadea5e4	-0.0016986695
99	0xbca37f67	-0.019958211
100	0xbd4d26ef	-0.050085958
101	0xbce185dc	-0.02752965
102	0xbc95c460	-0.018282115
103	0xbcd24dd6	-0.02567188
104	0xbcb4e52e	-0.022081938
105	0xbc03b5ec	-0.008038979
106	0x3cbeeb28	0.02330549
107	0x3cc9d276	0.024636488
108	0xbb83f899	-0.004027438
109	0x3ce15cef	0.027510135
110	0x3bbe0a1c	0.005799545
111	0x3d14eec0	0.036360502
112	0xbd2466c6	-0.040137075
113	0xbd329cf6	-0.04360672
114	0xba98b018	-0.001164916
115	0x39d10aca	0.00039871625
116	0xbc4a09ec	-0.012331467
117	0x3c1ab2f1	0.009442077
118	0x3c4b1a05	0.01239634
119	0x3cbb1918	0.022839114
120	0x3d01e213	0.03170974
121	0xbb49d330	-0.0030796044
122	0x3d50f601	0.051015858
123	0xbb79a72e	-0.0038094032
124	0xbbd3e39d	-0.0064663426
125	0x3b5ea71c	0.0033974117
126	0x3bb31447	0.0054650637
127	0x3bd9357c	0.0066286903
128	0x3d5801d4	0.05273612
129	0xbce9268b	-0.028460762
130	0x3cfc1226	0.030770373
131	0x3c8c1d94	0.017103948
132	0xbcb1a95e	-0.021687206
133	0x3bb1e645	0.0054290616
134	0x3c1119f2	0.0088562835
135	0x3cdac325	0.02670438
136	0x3c8679b1	0.016415449
137	0xbba8dd70	-0.0051533505
138	0xbc06a02d	-0.0082169
139	0xbd15c379	-0.03656337
140	0xbb8286af	-0.0039833407
141	0x3c6317a4	0.013860617
142	0x3caa8c60	0.02081889
143	0x3cf5d069	0.030006604
144	0x3d026361	0.031833056
145	0x3c5396e7	0.012914396
146	0xbbbd2cbd	-0.0057731555
147	0x3d264410	0.040592253
148	0xbcd51fae	-0.026016083
149	0xbc8d70bf	-0.017265676
150	0xbcef77a3	-0.029231852
151	0x3896660b	7.171564e-05
152	0xbd076597	-0.033055868
153	0x3c0db11c	0.008648183
154	0x3c3f2654	0.011666853
155	0x3cea739b	0.028619578
156	0xbd240fae	-0.040054016
157	0xbcd38526	-0.025820326
158	0xbb4e04fb	-0.0031436074
159	0xbc8e7f16	-0.017394584
160	0x3ab43d7a	0.0013751232
161	0x3d0d4ea5	0.03449883
162	0x3a991fc1	0.0011682437
163	0x3cb75dc5	0.02238358
164	0x3cbd07ae	0.023074951
165	0xbb906dcd	-0.0044076205
166	0x3a0a1958	0.0005268059
167	0xbc9e8b2e	-0.019353475
168	0x3bbe0d06	0.0057998924
169	0x3d242980	0.04007864
170	0xbcde25ff	-0.027117727
171	0x3c642463	0.013924691
172	0x3c341d5e	0.01099333
173	0xba3655ac	-0.0006955515
174	0x3d46d2dd	0.04854094
175	0xbd32ec5f	-0.043682452
176	0xbcae54f5	-0.021280745
177	0x3bca1705	0.006167295
178	0x3c1af110	0.009456888
179	0xbc777304	-0.015103105
180	0x3d2eb751	0.042655293
181	0x3b7b5c46	0.003835456
182	0xbaf04519	-0.001833114
183	0x3cad45ca	0.021151442
184	0xbc1ea81c	-0.009683635
185	0xbbc87f5b	-0.0061186976
186	0x3b98b615	0.0046603777
187	0xbccd1258	-0.025033161
188	0x3c9f7edb	0.01946967
189	0xbcf57d53	-0.029966986
190	0x3c144366	0.009049272
191	0xbd2384aa	-0.03992144
192	0x3c4f9a4f	0.012671067
193	0xbc11cd4b	-0.008899043
194	0xbcec87e3	-0.02887339
195	0x3bea7d4e	0.0071560508
196	0x3d21ca3e	0.039499514
197	0xbcf2d516	-0.029642623
198	0x3c2adb2a	0.010428229
199	0xbca61a98	-0.020276353
200	0x3bfcd9ca	0.007716392
201	0x3ce4472b	0.027865967
202	0x3c7e3de4	0.015517686
203	0xbd84f125	-0.06491307
204	0x3c53ec5d	0.012934771
205	0x3db4f0d1	0.088349946
206	0xbcd12614	-0.025530852
207	0x3c9ffec3	0.01953066
208	0x3ca7a9c6	0.020466696
209	0x3b862d39	0.0040947464
210	0xbbdedb05	-0.0068010115
211	0x3bdb7761	0.0066975807
212	0x3c675657	0.014119706
213	0xbd9266b2	-0.07148494
214	0x3bc39bf7	0.00596952
215	0xbd3b3bc2	-0.045711286
216	0xbd6978af	-0.05699986
217	0x3d9147ad	0.07093749
218	0xbccd1de8	-0.025038674
219	0xbd75b1e4	-0.059984103
220	0xbd96f508	-0.07370955
221	0x3cff4059	0.031158613
222	0xbd8d9c4f	-0.06914579
223	0xbc171260	-0.00922069
224	0x3cf9e586	0.030504953
225	0xbbfbcfc3	-0.0076846792
226	0x3c211ec1	0.009833992
227	0x3cd902b4	0.026490547
228	0x3d4fc19a	0.050721742
229	0x3bdd307c	0.0067501646
230	0xbc664f8d	-0.014057052
231	0xbc884481	-0.016634228
232	0xbd27c804	-0.040962234
233	0xbc268355	-0.010163148
234	0xbd03c208	-0.032167464
235	0xbd48aab4	-0.04899092
236	0xbcfb6059	-0.03068559
237	0x3d2c6277	0.04208609
238	0xbd112010	-0.035430968
239	0xbd1877cb	-0.03722362
240	0x3ca0ac17	0.019613309
241	0xbd2bd106	-0.041947387
242	0xbd1b9afe	-0.03798961
243	0xbb7871f3	-0.0037909716
244	0x3c0015ec	0.007817727
245	0xba636553	-0.0008674461
246	0x3cb783e9	0.022401767
247	0x3d24ecb8	0.040264815
248	0x3bce57c2	0.0062970826
249	0xbce33248	-0.027733937
250	0x3cd2ec85	0.025747547
251	0x3ceb2a31	0.028706642
252	0xbd0d5681	-0.034506325
253	0x3cded560	0.027201355
254	0x3b86ab9c	0.004109813
255	0x3c60296f	0.013681754

bias f4 [9]
0	0xb87b13a2	-5.9861348e-05
1	0x3bb2b509	0.00545371
2	0x3ac987fd	0.0015375611
3	0xb9a24df5	-0.0003095713
4	0x3b3cf2dc	0.002883128
5	0xbb7bf030	-0.0038442723
6	0xbbeb36d6	-0.007178168
7	0x399fd90d	0.0003048856
8	0x3bd421a0	0.006473735
